DistributedDataParallel(
  (module): EfficientViT(
    (patch_embed): Sequential(
      (0): Conv2d_BN(
        (c): Conv2d(3, 8, kernel_size=(3, 3), stride=(2, 2), padding=(1, 1), bias=False)
        (bn): BatchNorm2d(8, eps=1e-05, momentum=0.1, affine=True, track_running_stats=True)
      )
      (1): ReLU()
      (2): Conv2d_BN(
        (c): Conv2d(8, 16, kernel_size=(3, 3), stride=(2, 2), padding=(1, 1), bias=False)
        (bn): BatchNorm2d(16, eps=1e-05, momentum=0.1, affine=True, track_running_stats=True)
      )
      (3): ReLU()
      (4): Conv2d_BN(
        (c): Conv2d(16, 32, kernel_size=(3, 3), stride=(2, 2), padding=(1, 1), bias=False)
        (bn): BatchNorm2d(32, eps=1e-05, momentum=0.1, affine=True, track_running_stats=True)
      )
      (5): ReLU()
      (6): Conv2d_BN(
        (c): Conv2d(32, 64, kernel_size=(3, 3), stride=(2, 2), padding=(1, 1), bias=False)
        (bn): BatchNorm2d(64, eps=1e-05, momentum=0.1, affine=True, track_running_stats=True)
      )
    )
    (blocks1): Sequential(
      (0): EfficientViTBlock(
        (dw0): Residual(
          (m): Conv2d_BN(
            (c): Conv2d(64, 64, kernel_size=(3, 3), stride=(1, 1), padding=(1, 1), groups=64, bias=False)
            (bn): BatchNorm2d(64, eps=1e-05, momentum=0.1, affine=True, track_running_stats=True)
          )
        )
        (ffn0): Residual(
          (m): FFN(
            (pw1): Conv2d_BN(
              (c): Conv2d(64, 128, kernel_size=(1, 1), stride=(1, 1), bias=False)
              (bn): BatchNorm2d(128, eps=1e-05, momentum=0.1, affine=True, track_running_stats=True)
            )
            (act): ReLU()
            (pw2): Conv2d_BN(
              (c): Conv2d(128, 64, kernel_size=(1, 1), stride=(1, 1), bias=False)
              (bn): BatchNorm2d(64, eps=1e-05, momentum=0.1, affine=True, track_running_stats=True)
            )
          )
        )
        (mixer): Residual(
          (m): LocalWindowAttention(
            (attn): CascadedGroupAttention(
              (qkvs): ModuleList(
                (0-3): 4 x Conv2d_BN(
                  (c): Conv2d(16, 48, kernel_size=(1, 1), stride=(1, 1), bias=False)
                  (bn): BatchNorm2d(48, eps=1e-05, momentum=0.1, affine=True, track_running_stats=True)
                )
              )
              (dws): ModuleList(
                (0-3): 4 x Conv2d_BN(
                  (c): Conv2d(16, 16, kernel_size=(5, 5), stride=(1, 1), padding=(2, 2), groups=16, bias=False)
                  (bn): BatchNorm2d(16, eps=1e-05, momentum=0.1, affine=True, track_running_stats=True)
                )
              )
              (proj): Sequential(
                (0): ReLU()
                (1): Conv2d_BN(
                  (c): Conv2d(64, 64, kernel_size=(1, 1), stride=(1, 1), bias=False)
                  (bn): BatchNorm2d(64, eps=1e-05, momentum=0.1, affine=True, track_running_stats=True)
                )
              )
            )
          )
        )
        (dw1): Residual(
          (m): Conv2d_BN(
            (c): Conv2d(64, 64, kernel_size=(3, 3), stride=(1, 1), padding=(1, 1), groups=64, bias=False)
            (bn): BatchNorm2d(64, eps=1e-05, momentum=0.1, affine=True, track_running_stats=True)
          )
        )
        (ffn1): Residual(
          (m): FFN(
            (pw1): Conv2d_BN(
              (c): Conv2d(64, 128, kernel_size=(1, 1), stride=(1, 1), bias=False)
              (bn): BatchNorm2d(128, eps=1e-05, momentum=0.1, affine=True, track_running_stats=True)
            )
            (act): ReLU()
            (pw2): Conv2d_BN(
              (c): Conv2d(128, 64, kernel_size=(1, 1), stride=(1, 1), bias=False)
              (bn): BatchNorm2d(64, eps=1e-05, momentum=0.1, affine=True, track_running_stats=True)
            )
          )
        )
      )
    )
    (blocks2): Sequential(
      (0): Sequential(
        (0): Residual(
          (m): Conv2d_BN(
            (c): Conv2d(64, 64, kernel_size=(3, 3), stride=(1, 1), padding=(1, 1), groups=64, bias=False)
            (bn): BatchNorm2d(64, eps=1e-05, momentum=0.1, affine=True, track_running_stats=True)
          )
        )
        (1): Residual(
          (m): FFN(
            (pw1): Conv2d_BN(
              (c): Conv2d(64, 128, kernel_size=(1, 1), stride=(1, 1), bias=False)
              (bn): BatchNorm2d(128, eps=1e-05, momentum=0.1, affine=True, track_running_stats=True)
            )
            (act): ReLU()
            (pw2): Conv2d_BN(
              (c): Conv2d(128, 64, kernel_size=(1, 1), stride=(1, 1), bias=False)
              (bn): BatchNorm2d(64, eps=1e-05, momentum=0.1, affine=True, track_running_stats=True)
            )
          )
        )
      )
      (1): PatchMerging(
        (conv1): Conv2d_BN(
          (c): Conv2d(64, 256, kernel_size=(1, 1), stride=(1, 1), bias=False)
          (bn): BatchNorm2d(256, eps=1e-05, momentum=0.1, affine=True, track_running_stats=True)
        )
        (act): ReLU()
        (conv2): Conv2d_BN(
          (c): Conv2d(256, 256, kernel_size=(3, 3), stride=(2, 2), padding=(1, 1), groups=256, bias=False)
          (bn): BatchNorm2d(256, eps=1e-05, momentum=0.1, affine=True, track_running_stats=True)
        )
        (se): SEModule(
          (fc1): Conv2d(256, 64, kernel_size=(1, 1), stride=(1, 1))
          (bn): Identity()
          (act): ReLU(inplace=True)
          (fc2): Conv2d(64, 256, kernel_size=(1, 1), stride=(1, 1))
          (gate): Sigmoid()
        )
        (conv3): Conv2d_BN(
          (c): Conv2d(256, 128, kernel_size=(1, 1), stride=(1, 1), bias=False)
          (bn): BatchNorm2d(128, eps=1e-05, momentum=0.1, affine=True, track_running_stats=True)
        )
      )
      (2): Sequential(
        (0): Residual(
          (m): Conv2d_BN(
            (c): Conv2d(128, 128, kernel_size=(3, 3), stride=(1, 1), padding=(1, 1), groups=128, bias=False)
            (bn): BatchNorm2d(128, eps=1e-05, momentum=0.1, affine=True, track_running_stats=True)
          )
        )
        (1): Residual(
          (m): FFN(
            (pw1): Conv2d_BN(
              (c): Conv2d(128, 256, kernel_size=(1, 1), stride=(1, 1), bias=False)
              (bn): BatchNorm2d(256, eps=1e-05, momentum=0.1, affine=True, track_running_stats=True)
            )
            (act): ReLU()
            (pw2): Conv2d_BN(
              (c): Conv2d(256, 128, kernel_size=(1, 1), stride=(1, 1), bias=False)
              (bn): BatchNorm2d(128, eps=1e-05, momentum=0.1, affine=True, track_running_stats=True)
            )
          )
        )
      )
      (3): EfficientViTBlock(
        (dw0): Residual(
          (m): Conv2d_BN(
            (c): Conv2d(128, 128, kernel_size=(3, 3), stride=(1, 1), padding=(1, 1), groups=128, bias=False)
            (bn): BatchNorm2d(128, eps=1e-05, momentum=0.1, affine=True, track_running_stats=True)
          )
        )
        (ffn0): Residual(
          (m): FFN(
            (pw1): Conv2d_BN(
              (c): Conv2d(128, 256, kernel_size=(1, 1), stride=(1, 1), bias=False)
              (bn): BatchNorm2d(256, eps=1e-05, momentum=0.1, affine=True, track_running_stats=True)
            )
            (act): ReLU()
            (pw2): Conv2d_BN(
              (c): Conv2d(256, 128, kernel_size=(1, 1), stride=(1, 1), bias=False)
              (bn): BatchNorm2d(128, eps=1e-05, momentum=0.1, affine=True, track_running_stats=True)
            )
          )
        )
        (mixer): Residual(
          (m): LocalWindowAttention(
            (attn): CascadedGroupAttention(
              (qkvs): ModuleList(
                (0-3): 4 x Conv2d_BN(
                  (c): Conv2d(32, 64, kernel_size=(1, 1), stride=(1, 1), bias=False)
                  (bn): BatchNorm2d(64, eps=1e-05, momentum=0.1, affine=True, track_running_stats=True)
                )
              )
              (dws): ModuleList(
                (0-3): 4 x Conv2d_BN(
                  (c): Conv2d(16, 16, kernel_size=(5, 5), stride=(1, 1), padding=(2, 2), groups=16, bias=False)
                  (bn): BatchNorm2d(16, eps=1e-05, momentum=0.1, affine=True, track_running_stats=True)
                )
              )
              (proj): Sequential(
                (0): ReLU()
                (1): Conv2d_BN(
                  (c): Conv2d(128, 128, kernel_size=(1, 1), stride=(1, 1), bias=False)
                  (bn): BatchNorm2d(128, eps=1e-05, momentum=0.1, affine=True, track_running_stats=True)
                )
              )
            )
          )
        )
        (dw1): Residual(
          (m): Conv2d_BN(
            (c): Conv2d(128, 128, kernel_size=(3, 3), stride=(1, 1), padding=(1, 1), groups=128, bias=False)
            (bn): BatchNorm2d(128, eps=1e-05, momentum=0.1, affine=True, track_running_stats=True)
          )
        )
        (ffn1): Residual(
          (m): FFN(
            (pw1): Conv2d_BN(
              (c): Conv2d(128, 256, kernel_size=(1, 1), stride=(1, 1), bias=False)
              (bn): BatchNorm2d(256, eps=1e-05, momentum=0.1, affine=True, track_running_stats=True)
            )
            (act): ReLU()
            (pw2): Conv2d_BN(
              (c): Conv2d(256, 128, kernel_size=(1, 1), stride=(1, 1), bias=False)
              (bn): BatchNorm2d(128, eps=1e-05, momentum=0.1, affine=True, track_running_stats=True)
            )
          )
        )
      )
      (4): EfficientViTBlock(
        (dw0): Residual(
          (m): Conv2d_BN(
            (c): Conv2d(128, 128, kernel_size=(3, 3), stride=(1, 1), padding=(1, 1), groups=128, bias=False)
            (bn): BatchNorm2d(128, eps=1e-05, momentum=0.1, affine=True, track_running_stats=True)
          )
        )
        (ffn0): Residual(
          (m): FFN(
            (pw1): Conv2d_BN(
              (c): Conv2d(128, 256, kernel_size=(1, 1), stride=(1, 1), bias=False)
              (bn): BatchNorm2d(256, eps=1e-05, momentum=0.1, affine=True, track_running_stats=True)
            )
            (act): ReLU()
            (pw2): Conv2d_BN(
              (c): Conv2d(256, 128, kernel_size=(1, 1), stride=(1, 1), bias=False)
              (bn): BatchNorm2d(128, eps=1e-05, momentum=0.1, affine=True, track_running_stats=True)
            )
          )
        )
        (mixer): Residual(
          (m): LocalWindowAttention(
            (attn): CascadedGroupAttention(
              (qkvs): ModuleList(
                (0-3): 4 x Conv2d_BN(
                  (c): Conv2d(32, 64, kernel_size=(1, 1), stride=(1, 1), bias=False)
                  (bn): BatchNorm2d(64, eps=1e-05, momentum=0.1, affine=True, track_running_stats=True)
                )
              )
              (dws): ModuleList(
                (0-3): 4 x Conv2d_BN(
                  (c): Conv2d(16, 16, kernel_size=(5, 5), stride=(1, 1), padding=(2, 2), groups=16, bias=False)
                  (bn): BatchNorm2d(16, eps=1e-05, momentum=0.1, affine=True, track_running_stats=True)
                )
              )
              (proj): Sequential(
                (0): ReLU()
                (1): Conv2d_BN(
                  (c): Conv2d(128, 128, kernel_size=(1, 1), stride=(1, 1), bias=False)
                  (bn): BatchNorm2d(128, eps=1e-05, momentum=0.1, affine=True, track_running_stats=True)
                )
              )
            )
          )
        )
        (dw1): Residual(
          (m): Conv2d_BN(
            (c): Conv2d(128, 128, kernel_size=(3, 3), stride=(1, 1), padding=(1, 1), groups=128, bias=False)
            (bn): BatchNorm2d(128, eps=1e-05, momentum=0.1, affine=True, track_running_stats=True)
          )
        )
        (ffn1): Residual(
          (m): FFN(
            (pw1): Conv2d_BN(
              (c): Conv2d(128, 256, kernel_size=(1, 1), stride=(1, 1), bias=False)
              (bn): BatchNorm2d(256, eps=1e-05, momentum=0.1, affine=True, track_running_stats=True)
            )
            (act): ReLU()
            (pw2): Conv2d_BN(
              (c): Conv2d(256, 128, kernel_size=(1, 1), stride=(1, 1), bias=False)
              (bn): BatchNorm2d(128, eps=1e-05, momentum=0.1, affine=True, track_running_stats=True)
            )
          )
        )
      )
    )
    (blocks3): Sequential(
      (0): Sequential(
        (0): Residual(
          (m): Conv2d_BN(
            (c): Conv2d(128, 128, kernel_size=(3, 3), stride=(1, 1), padding=(1, 1), groups=128, bias=False)
            (bn): BatchNorm2d(128, eps=1e-05, momentum=0.1, affine=True, track_running_stats=True)
          )
        )
        (1): Residual(
          (m): FFN(
            (pw1): Conv2d_BN(
              (c): Conv2d(128, 256, kernel_size=(1, 1), stride=(1, 1), bias=False)
              (bn): BatchNorm2d(256, eps=1e-05, momentum=0.1, affine=True, track_running_stats=True)
            )
            (act): ReLU()
            (pw2): Conv2d_BN(
              (c): Conv2d(256, 128, kernel_size=(1, 1), stride=(1, 1), bias=False)
              (bn): BatchNorm2d(128, eps=1e-05, momentum=0.1, affine=True, track_running_stats=True)
            )
          )
        )
      )
      (1): PatchMerging(
        (conv1): Conv2d_BN(
          (c): Conv2d(128, 512, kernel_size=(1, 1), stride=(1, 1), bias=False)
          (bn): BatchNorm2d(512, eps=1e-05, momentum=0.1, affine=True, track_running_stats=True)
        )
        (act): ReLU()
        (conv2): Conv2d_BN(
          (c): Conv2d(512, 512, kernel_size=(3, 3), stride=(2, 2), padding=(1, 1), groups=512, bias=False)
          (bn): BatchNorm2d(512, eps=1e-05, momentum=0.1, affine=True, track_running_stats=True)
        )
        (se): SEModule(
          (fc1): Conv2d(512, 128, kernel_size=(1, 1), stride=(1, 1))
          (bn): Identity()
          (act): ReLU(inplace=True)
          (fc2): Conv2d(128, 512, kernel_size=(1, 1), stride=(1, 1))
          (gate): Sigmoid()
        )
        (conv3): Conv2d_BN(
          (c): Conv2d(512, 192, kernel_size=(1, 1), stride=(1, 1), bias=False)
          (bn): BatchNorm2d(192, eps=1e-05, momentum=0.1, affine=True, track_running_stats=True)
        )
      )
      (2): Sequential(
        (0): Residual(
          (m): Conv2d_BN(
            (c): Conv2d(192, 192, kernel_size=(3, 3), stride=(1, 1), padding=(1, 1), groups=192, bias=False)
            (bn): BatchNorm2d(192, eps=1e-05, momentum=0.1, affine=True, track_running_stats=True)
          )
        )
        (1): Residual(
          (m): FFN(
            (pw1): Conv2d_BN(
              (c): Conv2d(192, 384, kernel_size=(1, 1), stride=(1, 1), bias=False)
              (bn): BatchNorm2d(384, eps=1e-05, momentum=0.1, affine=True, track_running_stats=True)
            )
            (act): ReLU()
            (pw2): Conv2d_BN(
              (c): Conv2d(384, 192, kernel_size=(1, 1), stride=(1, 1), bias=False)
              (bn): BatchNorm2d(192, eps=1e-05, momentum=0.1, affine=True, track_running_stats=True)
            )
          )
        )
      )
      (3): EfficientViTBlock(
        (dw0): Residual(
          (m): Conv2d_BN(
            (c): Conv2d(192, 192, kernel_size=(3, 3), stride=(1, 1), padding=(1, 1), groups=192, bias=False)
            (bn): BatchNorm2d(192, eps=1e-05, momentum=0.1, affine=True, track_running_stats=True)
          )
        )
        (ffn0): Residual(
          (m): FFN(
            (pw1): Conv2d_BN(
              (c): Conv2d(192, 384, kernel_size=(1, 1), stride=(1, 1), bias=False)
              (bn): BatchNorm2d(384, eps=1e-05, momentum=0.1, affine=True, track_running_stats=True)
            )
            (act): ReLU()
            (pw2): Conv2d_BN(
              (c): Conv2d(384, 192, kernel_size=(1, 1), stride=(1, 1), bias=False)
              (bn): BatchNorm2d(192, eps=1e-05, momentum=0.1, affine=True, track_running_stats=True)
            )
          )
        )
        (mixer): Residual(
          (m): LocalWindowAttention(
            (attn): CascadedGroupAttention(
              (qkvs): ModuleList(
                (0-3): 4 x Conv2d_BN(
                  (c): Conv2d(48, 80, kernel_size=(1, 1), stride=(1, 1), bias=False)
                  (bn): BatchNorm2d(80, eps=1e-05, momentum=0.1, affine=True, track_running_stats=True)
                )
              )
              (dws): ModuleList(
                (0-3): 4 x Conv2d_BN(
                  (c): Conv2d(16, 16, kernel_size=(5, 5), stride=(1, 1), padding=(2, 2), groups=16, bias=False)
                  (bn): BatchNorm2d(16, eps=1e-05, momentum=0.1, affine=True, track_running_stats=True)
                )
              )
              (proj): Sequential(
                (0): ReLU()
                (1): Conv2d_BN(
                  (c): Conv2d(192, 192, kernel_size=(1, 1), stride=(1, 1), bias=False)
                  (bn): BatchNorm2d(192, eps=1e-05, momentum=0.1, affine=True, track_running_stats=True)
                )
              )
            )
          )
        )
        (dw1): Residual(
          (m): Conv2d_BN(
            (c): Conv2d(192, 192, kernel_size=(3, 3), stride=(1, 1), padding=(1, 1), groups=192, bias=False)
            (bn): BatchNorm2d(192, eps=1e-05, momentum=0.1, affine=True, track_running_stats=True)
          )
        )
        (ffn1): Residual(
          (m): FFN(
            (pw1): Conv2d_BN(
              (c): Conv2d(192, 384, kernel_size=(1, 1), stride=(1, 1), bias=False)
              (bn): BatchNorm2d(384, eps=1e-05, momentum=0.1, affine=True, track_running_stats=True)
            )
            (act): ReLU()
            (pw2): Conv2d_BN(
              (c): Conv2d(384, 192, kernel_size=(1, 1), stride=(1, 1), bias=False)
              (bn): BatchNorm2d(192, eps=1e-05, momentum=0.1, affine=True, track_running_stats=True)
            )
          )
        )
      )
      (4): EfficientViTBlock(
        (dw0): Residual(
          (m): Conv2d_BN(
            (c): Conv2d(192, 192, kernel_size=(3, 3), stride=(1, 1), padding=(1, 1), groups=192, bias=False)
            (bn): BatchNorm2d(192, eps=1e-05, momentum=0.1, affine=True, track_running_stats=True)
          )
        )
        (ffn0): Residual(
          (m): FFN(
            (pw1): Conv2d_BN(
              (c): Conv2d(192, 384, kernel_size=(1, 1), stride=(1, 1), bias=False)
              (bn): BatchNorm2d(384, eps=1e-05, momentum=0.1, affine=True, track_running_stats=True)
            )
            (act): ReLU()
            (pw2): Conv2d_BN(
              (c): Conv2d(384, 192, kernel_size=(1, 1), stride=(1, 1), bias=False)
              (bn): BatchNorm2d(192, eps=1e-05, momentum=0.1, affine=True, track_running_stats=True)
            )
          )
        )
        (mixer): Residual(
          (m): LocalWindowAttention(
            (attn): CascadedGroupAttention(
              (qkvs): ModuleList(
                (0-3): 4 x Conv2d_BN(
                  (c): Conv2d(48, 80, kernel_size=(1, 1), stride=(1, 1), bias=False)
                  (bn): BatchNorm2d(80, eps=1e-05, momentum=0.1, affine=True, track_running_stats=True)
                )
              )
              (dws): ModuleList(
                (0-3): 4 x Conv2d_BN(
                  (c): Conv2d(16, 16, kernel_size=(5, 5), stride=(1, 1), padding=(2, 2), groups=16, bias=False)
                  (bn): BatchNorm2d(16, eps=1e-05, momentum=0.1, affine=True, track_running_stats=True)
                )
              )
              (proj): Sequential(
                (0): ReLU()
                (1): Conv2d_BN(
                  (c): Conv2d(192, 192, kernel_size=(1, 1), stride=(1, 1), bias=False)
                  (bn): BatchNorm2d(192, eps=1e-05, momentum=0.1, affine=True, track_running_stats=True)
                )
              )
            )
          )
        )
        (dw1): Residual(
          (m): Conv2d_BN(
            (c): Conv2d(192, 192, kernel_size=(3, 3), stride=(1, 1), padding=(1, 1), groups=192, bias=False)
            (bn): BatchNorm2d(192, eps=1e-05, momentum=0.1, affine=True, track_running_stats=True)
          )
        )
        (ffn1): Residual(
          (m): FFN(
            (pw1): Conv2d_BN(
              (c): Conv2d(192, 384, kernel_size=(1, 1), stride=(1, 1), bias=False)
              (bn): BatchNorm2d(384, eps=1e-05, momentum=0.1, affine=True, track_running_stats=True)
            )
            (act): ReLU()
            (pw2): Conv2d_BN(
              (c): Conv2d(384, 192, kernel_size=(1, 1), stride=(1, 1), bias=False)
              (bn): BatchNorm2d(192, eps=1e-05, momentum=0.1, affine=True, track_running_stats=True)
            )
          )
        )
      )
      (5): EfficientViTBlock(
        (dw0): Residual(
          (m): Conv2d_BN(
            (c): Conv2d(192, 192, kernel_size=(3, 3), stride=(1, 1), padding=(1, 1), groups=192, bias=False)
            (bn): BatchNorm2d(192, eps=1e-05, momentum=0.1, affine=True, track_running_stats=True)
          )
        )
        (ffn0): Residual(
          (m): FFN(
            (pw1): Conv2d_BN(
              (c): Conv2d(192, 384, kernel_size=(1, 1), stride=(1, 1), bias=False)
              (bn): BatchNorm2d(384, eps=1e-05, momentum=0.1, affine=True, track_running_stats=True)
            )
            (act): ReLU()
            (pw2): Conv2d_BN(
              (c): Conv2d(384, 192, kernel_size=(1, 1), stride=(1, 1), bias=False)
              (bn): BatchNorm2d(192, eps=1e-05, momentum=0.1, affine=True, track_running_stats=True)
            )
          )
        )
        (mixer): Residual(
          (m): LocalWindowAttention(
            (attn): CascadedGroupAttention(
              (qkvs): ModuleList(
                (0-3): 4 x Conv2d_BN(
                  (c): Conv2d(48, 80, kernel_size=(1, 1), stride=(1, 1), bias=False)
                  (bn): BatchNorm2d(80, eps=1e-05, momentum=0.1, affine=True, track_running_stats=True)
                )
              )
              (dws): ModuleList(
                (0-3): 4 x Conv2d_BN(
                  (c): Conv2d(16, 16, kernel_size=(5, 5), stride=(1, 1), padding=(2, 2), groups=16, bias=False)
                  (bn): BatchNorm2d(16, eps=1e-05, momentum=0.1, affine=True, track_running_stats=True)
                )
              )
              (proj): Sequential(
                (0): ReLU()
                (1): Conv2d_BN(
                  (c): Conv2d(192, 192, kernel_size=(1, 1), stride=(1, 1), bias=False)
                  (bn): BatchNorm2d(192, eps=1e-05, momentum=0.1, affine=True, track_running_stats=True)
                )
              )
            )
          )
        )
        (dw1): Residual(
          (m): Conv2d_BN(
            (c): Conv2d(192, 192, kernel_size=(3, 3), stride=(1, 1), padding=(1, 1), groups=192, bias=False)
            (bn): BatchNorm2d(192, eps=1e-05, momentum=0.1, affine=True, track_running_stats=True)
          )
        )
        (ffn1): Residual(
          (m): FFN(
            (pw1): Conv2d_BN(
              (c): Conv2d(192, 384, kernel_size=(1, 1), stride=(1, 1), bias=False)
              (bn): BatchNorm2d(384, eps=1e-05, momentum=0.1, affine=True, track_running_stats=True)
            )
            (act): ReLU()
            (pw2): Conv2d_BN(
              (c): Conv2d(384, 192, kernel_size=(1, 1), stride=(1, 1), bias=False)
              (bn): BatchNorm2d(192, eps=1e-05, momentum=0.1, affine=True, track_running_stats=True)
            )
          )
        )
      )
    )
    (head): BN_Linear(
      (bn): BatchNorm1d(192, eps=1e-05, momentum=0.1, affine=True, track_running_stats=True)
      (l): Linear(in_features=192, out_features=100, bias=True)
    )
  )
)DistributedDataParallel(
  (module): EfficientViT(
    (patch_embed): Sequential(
      (0): Conv2d_BN(
        (c): Conv2d(3, 8, kernel_size=(3, 3), stride=(2, 2), padding=(1, 1), bias=False)
        (bn): BatchNorm2d(8, eps=1e-05, momentum=0.1, affine=True, track_running_stats=True)
      )
      (1): ReLU()
      (2): Conv2d_BN(
        (c): Conv2d(8, 16, kernel_size=(3, 3), stride=(2, 2), padding=(1, 1), bias=False)
        (bn): BatchNorm2d(16, eps=1e-05, momentum=0.1, affine=True, track_running_stats=True)
      )
      (3): ReLU()
      (4): Conv2d_BN(
        (c): Conv2d(16, 32, kernel_size=(3, 3), stride=(2, 2), padding=(1, 1), bias=False)
        (bn): BatchNorm2d(32, eps=1e-05, momentum=0.1, affine=True, track_running_stats=True)
      )
      (5): ReLU()
      (6): Conv2d_BN(
        (c): Conv2d(32, 64, kernel_size=(3, 3), stride=(2, 2), padding=(1, 1), bias=False)
        (bn): BatchNorm2d(64, eps=1e-05, momentum=0.1, affine=True, track_running_stats=True)
      )
    )
    (blocks1): Sequential(
      (0): EfficientViTBlock(
        (dw0): Residual(
          (m): Conv2d_BN(
            (c): Conv2d(64, 64, kernel_size=(3, 3), stride=(1, 1), padding=(1, 1), groups=64, bias=False)
            (bn): BatchNorm2d(64, eps=1e-05, momentum=0.1, affine=True, track_running_stats=True)
          )
        )
        (ffn0): Residual(
          (m): FFN(
            (pw1): Conv2d_BN(
              (c): Conv2d(64, 128, kernel_size=(1, 1), stride=(1, 1), bias=False)
              (bn): BatchNorm2d(128, eps=1e-05, momentum=0.1, affine=True, track_running_stats=True)
            )
            (act): ReLU()
            (pw2): Conv2d_BN(
              (c): Conv2d(128, 64, kernel_size=(1, 1), stride=(1, 1), bias=False)
              (bn): BatchNorm2d(64, eps=1e-05, momentum=0.1, affine=True, track_running_stats=True)
            )
          )
        )
        (mixer): Residual(
          (m): LocalWindowAttention(
            (attn): CascadedGroupAttention(
              (qkvs): ModuleList(
                (0-3): 4 x Conv2d_BN(
                  (c): Conv2d(16, 48, kernel_size=(1, 1), stride=(1, 1), bias=False)
                  (bn): BatchNorm2d(48, eps=1e-05, momentum=0.1, affine=True, track_running_stats=True)
                )
              )
              (dws): ModuleList(
                (0-3): 4 x Conv2d_BN(
                  (c): Conv2d(16, 16, kernel_size=(5, 5), stride=(1, 1), padding=(2, 2), groups=16, bias=False)
                  (bn): BatchNorm2d(16, eps=1e-05, momentum=0.1, affine=True, track_running_stats=True)
                )
              )
              (proj): Sequential(
                (0): ReLU()
                (1): Conv2d_BN(
                  (c): Conv2d(64, 64, kernel_size=(1, 1), stride=(1, 1), bias=False)
                  (bn): BatchNorm2d(64, eps=1e-05, momentum=0.1, affine=True, track_running_stats=True)
                )
              )
            )
          )
        )
        (dw1): Residual(
          (m): Conv2d_BN(
            (c): Conv2d(64, 64, kernel_size=(3, 3), stride=(1, 1), padding=(1, 1), groups=64, bias=False)
            (bn): BatchNorm2d(64, eps=1e-05, momentum=0.1, affine=True, track_running_stats=True)
          )
        )
        (ffn1): Residual(
          (m): FFN(
            (pw1): Conv2d_BN(
              (c): Conv2d(64, 128, kernel_size=(1, 1), stride=(1, 1), bias=False)
              (bn): BatchNorm2d(128, eps=1e-05, momentum=0.1, affine=True, track_running_stats=True)
            )
            (act): ReLU()
            (pw2): Conv2d_BN(
              (c): Conv2d(128, 64, kernel_size=(1, 1), stride=(1, 1), bias=False)
              (bn): BatchNorm2d(64, eps=1e-05, momentum=0.1, affine=True, track_running_stats=True)
            )
          )
        )
      )
    )
    (blocks2): Sequential(
      (0): Sequential(
        (0): Residual(
          (m): Conv2d_BN(
            (c): Conv2d(64, 64, kernel_size=(3, 3), stride=(1, 1), padding=(1, 1), groups=64, bias=False)
            (bn): BatchNorm2d(64, eps=1e-05, momentum=0.1, affine=True, track_running_stats=True)
          )
        )
        (1): Residual(
          (m): FFN(
            (pw1): Conv2d_BN(
              (c): Conv2d(64, 128, kernel_size=(1, 1), stride=(1, 1), bias=False)
              (bn): BatchNorm2d(128, eps=1e-05, momentum=0.1, affine=True, track_running_stats=True)
            )
            (act): ReLU()
            (pw2): Conv2d_BN(
              (c): Conv2d(128, 64, kernel_size=(1, 1), stride=(1, 1), bias=False)
              (bn): BatchNorm2d(64, eps=1e-05, momentum=0.1, affine=True, track_running_stats=True)
            )
          )
        )
      )
      (1): PatchMerging(
        (conv1): Conv2d_BN(
          (c): Conv2d(64, 256, kernel_size=(1, 1), stride=(1, 1), bias=False)
          (bn): BatchNorm2d(256, eps=1e-05, momentum=0.1, affine=True, track_running_stats=True)
        )
        (act): ReLU()
        (conv2): Conv2d_BN(
          (c): Conv2d(256, 256, kernel_size=(3, 3), stride=(2, 2), padding=(1, 1), groups=256, bias=False)
          (bn): BatchNorm2d(256, eps=1e-05, momentum=0.1, affine=True, track_running_stats=True)
        )
        (se): SEModule(
          (fc1): Conv2d(256, 64, kernel_size=(1, 1), stride=(1, 1))
          (bn): Identity()
          (act): ReLU(inplace=True)
          (fc2): Conv2d(64, 256, kernel_size=(1, 1), stride=(1, 1))
          (gate): Sigmoid()
        )
        (conv3): Conv2d_BN(
          (c): Conv2d(256, 128, kernel_size=(1, 1), stride=(1, 1), bias=False)
          (bn): BatchNorm2d(128, eps=1e-05, momentum=0.1, affine=True, track_running_stats=True)
        )
      )
      (2): Sequential(
        (0): Residual(
          (m): Conv2d_BN(
            (c): Conv2d(128, 128, kernel_size=(3, 3), stride=(1, 1), padding=(1, 1), groups=128, bias=False)
            (bn): BatchNorm2d(128, eps=1e-05, momentum=0.1, affine=True, track_running_stats=True)
          )
        )
        (1): Residual(
          (m): FFN(
            (pw1): Conv2d_BN(
              (c): Conv2d(128, 256, kernel_size=(1, 1), stride=(1, 1), bias=False)
              (bn): BatchNorm2d(256, eps=1e-05, momentum=0.1, affine=True, track_running_stats=True)
            )
            (act): ReLU()
            (pw2): Conv2d_BN(
              (c): Conv2d(256, 128, kernel_size=(1, 1), stride=(1, 1), bias=False)
              (bn): BatchNorm2d(128, eps=1e-05, momentum=0.1, affine=True, track_running_stats=True)
            )
          )
        )
      )
      (3): EfficientViTBlock(
        (dw0): Residual(
          (m): Conv2d_BN(
            (c): Conv2d(128, 128, kernel_size=(3, 3), stride=(1, 1), padding=(1, 1), groups=128, bias=False)
            (bn): BatchNorm2d(128, eps=1e-05, momentum=0.1, affine=True, track_running_stats=True)
          )
        )
        (ffn0): Residual(
          (m): FFN(
            (pw1): Conv2d_BN(
              (c): Conv2d(128, 256, kernel_size=(1, 1), stride=(1, 1), bias=False)
              (bn): BatchNorm2d(256, eps=1e-05, momentum=0.1, affine=True, track_running_stats=True)
            )
            (act): ReLU()
            (pw2): Conv2d_BN(
              (c): Conv2d(256, 128, kernel_size=(1, 1), stride=(1, 1), bias=False)
              (bn): BatchNorm2d(128, eps=1e-05, momentum=0.1, affine=True, track_running_stats=True)
            )
          )
        )
        (mixer): Residual(
          (m): LocalWindowAttention(
            (attn): CascadedGroupAttention(
              (qkvs): ModuleList(
                (0-3): 4 x Conv2d_BN(
                  (c): Conv2d(32, 64, kernel_size=(1, 1), stride=(1, 1), bias=False)
                  (bn): BatchNorm2d(64, eps=1e-05, momentum=0.1, affine=True, track_running_stats=True)
                )
              )
              (dws): ModuleList(
                (0-3): 4 x Conv2d_BN(
                  (c): Conv2d(16, 16, kernel_size=(5, 5), stride=(1, 1), padding=(2, 2), groups=16, bias=False)
                  (bn): BatchNorm2d(16, eps=1e-05, momentum=0.1, affine=True, track_running_stats=True)
                )
              )
              (proj): Sequential(
                (0): ReLU()
                (1): Conv2d_BN(
                  (c): Conv2d(128, 128, kernel_size=(1, 1), stride=(1, 1), bias=False)
                  (bn): BatchNorm2d(128, eps=1e-05, momentum=0.1, affine=True, track_running_stats=True)
                )
              )
            )
          )
        )
        (dw1): Residual(
          (m): Conv2d_BN(
            (c): Conv2d(128, 128, kernel_size=(3, 3), stride=(1, 1), padding=(1, 1), groups=128, bias=False)
            (bn): BatchNorm2d(128, eps=1e-05, momentum=0.1, affine=True, track_running_stats=True)
          )
        )
        (ffn1): Residual(
          (m): FFN(
            (pw1): Conv2d_BN(
              (c): Conv2d(128, 256, kernel_size=(1, 1), stride=(1, 1), bias=False)
              (bn): BatchNorm2d(256, eps=1e-05, momentum=0.1, affine=True, track_running_stats=True)
            )
            (act): ReLU()
            (pw2): Conv2d_BN(
              (c): Conv2d(256, 128, kernel_size=(1, 1), stride=(1, 1), bias=False)
              (bn): BatchNorm2d(128, eps=1e-05, momentum=0.1, affine=True, track_running_stats=True)
            )
          )
        )
      )
      (4): EfficientViTBlock(
        (dw0): Residual(
          (m): Conv2d_BN(
            (c): Conv2d(128, 128, kernel_size=(3, 3), stride=(1, 1), padding=(1, 1), groups=128, bias=False)
            (bn): BatchNorm2d(128, eps=1e-05, momentum=0.1, affine=True, track_running_stats=True)
          )
        )
        (ffn0): Residual(
          (m): FFN(
            (pw1): Conv2d_BN(
              (c): Conv2d(128, 256, kernel_size=(1, 1), stride=(1, 1), bias=False)
              (bn): BatchNorm2d(256, eps=1e-05, momentum=0.1, affine=True, track_running_stats=True)
            )
            (act): ReLU()
            (pw2): Conv2d_BN(
              (c): Conv2d(256, 128, kernel_size=(1, 1), stride=(1, 1), bias=False)
              (bn): BatchNorm2d(128, eps=1e-05, momentum=0.1, affine=True, track_running_stats=True)
            )
          )
        )
        (mixer): Residual(
          (m): LocalWindowAttention(
            (attn): CascadedGroupAttention(
              (qkvs): ModuleList(
                (0-3): 4 x Conv2d_BN(
                  (c): Conv2d(32, 64, kernel_size=(1, 1), stride=(1, 1), bias=False)
                  (bn): BatchNorm2d(64, eps=1e-05, momentum=0.1, affine=True, track_running_stats=True)
                )
              )
              (dws): ModuleList(
                (0-3): 4 x Conv2d_BN(
                  (c): Conv2d(16, 16, kernel_size=(5, 5), stride=(1, 1), padding=(2, 2), groups=16, bias=False)
                  (bn): BatchNorm2d(16, eps=1e-05, momentum=0.1, affine=True, track_running_stats=True)
                )
              )
              (proj): Sequential(
                (0): ReLU()
                (1): Conv2d_BN(
                  (c): Conv2d(128, 128, kernel_size=(1, 1), stride=(1, 1), bias=False)
                  (bn): BatchNorm2d(128, eps=1e-05, momentum=0.1, affine=True, track_running_stats=True)
                )
              )
            )
          )
        )
        (dw1): Residual(
          (m): Conv2d_BN(
            (c): Conv2d(128, 128, kernel_size=(3, 3), stride=(1, 1), padding=(1, 1), groups=128, bias=False)
            (bn): BatchNorm2d(128, eps=1e-05, momentum=0.1, affine=True, track_running_stats=True)
          )
        )
        (ffn1): Residual(
          (m): FFN(
            (pw1): Conv2d_BN(
              (c): Conv2d(128, 256, kernel_size=(1, 1), stride=(1, 1), bias=False)
              (bn): BatchNorm2d(256, eps=1e-05, momentum=0.1, affine=True, track_running_stats=True)
            )
            (act): ReLU()
            (pw2): Conv2d_BN(
              (c): Conv2d(256, 128, kernel_size=(1, 1), stride=(1, 1), bias=False)
              (bn): BatchNorm2d(128, eps=1e-05, momentum=0.1, affine=True, track_running_stats=True)
            )
          )
        )
      )
    )
    (blocks3): Sequential(
      (0): Sequential(
        (0): Residual(
          (m): Conv2d_BN(
            (c): Conv2d(128, 128, kernel_size=(3, 3), stride=(1, 1), padding=(1, 1), groups=128, bias=False)
            (bn): BatchNorm2d(128, eps=1e-05, momentum=0.1, affine=True, track_running_stats=True)
          )
        )
        (1): Residual(
          (m): FFN(
            (pw1): Conv2d_BN(
              (c): Conv2d(128, 256, kernel_size=(1, 1), stride=(1, 1), bias=False)
              (bn): BatchNorm2d(256, eps=1e-05, momentum=0.1, affine=True, track_running_stats=True)
            )
            (act): ReLU()
            (pw2): Conv2d_BN(
              (c): Conv2d(256, 128, kernel_size=(1, 1), stride=(1, 1), bias=False)
              (bn): BatchNorm2d(128, eps=1e-05, momentum=0.1, affine=True, track_running_stats=True)
            )
          )
        )
      )
      (1): PatchMerging(
        (conv1): Conv2d_BN(
          (c): Conv2d(128, 512, kernel_size=(1, 1), stride=(1, 1), bias=False)
          (bn): BatchNorm2d(512, eps=1e-05, momentum=0.1, affine=True, track_running_stats=True)
        )
        (act): ReLU()
        (conv2): Conv2d_BN(
          (c): Conv2d(512, 512, kernel_size=(3, 3), stride=(2, 2), padding=(1, 1), groups=512, bias=False)
          (bn): BatchNorm2d(512, eps=1e-05, momentum=0.1, affine=True, track_running_stats=True)
        )
        (se): SEModule(
          (fc1): Conv2d(512, 128, kernel_size=(1, 1), stride=(1, 1))
          (bn): Identity()
          (act): ReLU(inplace=True)
          (fc2): Conv2d(128, 512, kernel_size=(1, 1), stride=(1, 1))
          (gate): Sigmoid()
        )
        (conv3): Conv2d_BN(
          (c): Conv2d(512, 192, kernel_size=(1, 1), stride=(1, 1), bias=False)
          (bn): BatchNorm2d(192, eps=1e-05, momentum=0.1, affine=True, track_running_stats=True)
        )
      )
      (2): Sequential(
        (0): Residual(
          (m): Conv2d_BN(
            (c): Conv2d(192, 192, kernel_size=(3, 3), stride=(1, 1), padding=(1, 1), groups=192, bias=False)
            (bn): BatchNorm2d(192, eps=1e-05, momentum=0.1, affine=True, track_running_stats=True)
          )
        )
        (1): Residual(
          (m): FFN(
            (pw1): Conv2d_BN(
              (c): Conv2d(192, 384, kernel_size=(1, 1), stride=(1, 1), bias=False)
              (bn): BatchNorm2d(384, eps=1e-05, momentum=0.1, affine=True, track_running_stats=True)
            )
            (act): ReLU()
            (pw2): Conv2d_BN(
              (c): Conv2d(384, 192, kernel_size=(1, 1), stride=(1, 1), bias=False)
              (bn): BatchNorm2d(192, eps=1e-05, momentum=0.1, affine=True, track_running_stats=True)
            )
          )
        )
      )
      (3): EfficientViTBlock(
        (dw0): Residual(
          (m): Conv2d_BN(
            (c): Conv2d(192, 192, kernel_size=(3, 3), stride=(1, 1), padding=(1, 1), groups=192, bias=False)
            (bn): BatchNorm2d(192, eps=1e-05, momentum=0.1, affine=True, track_running_stats=True)
          )
        )
        (ffn0): Residual(
          (m): FFN(
            (pw1): Conv2d_BN(
              (c): Conv2d(192, 384, kernel_size=(1, 1), stride=(1, 1), bias=False)
              (bn): BatchNorm2d(384, eps=1e-05, momentum=0.1, affine=True, track_running_stats=True)
            )
            (act): ReLU()
            (pw2): Conv2d_BN(
              (c): Conv2d(384, 192, kernel_size=(1, 1), stride=(1, 1), bias=False)
              (bn): BatchNorm2d(192, eps=1e-05, momentum=0.1, affine=True, track_running_stats=True)
            )
          )
        )
        (mixer): Residual(
          (m): LocalWindowAttention(
            (attn): CascadedGroupAttention(
              (qkvs): ModuleList(
                (0-3): 4 x Conv2d_BN(
                  (c): Conv2d(48, 80, kernel_size=(1, 1), stride=(1, 1), bias=False)
                  (bn): BatchNorm2d(80, eps=1e-05, momentum=0.1, affine=True, track_running_stats=True)
                )
              )
              (dws): ModuleList(
                (0-3): 4 x Conv2d_BN(
                  (c): Conv2d(16, 16, kernel_size=(5, 5), stride=(1, 1), padding=(2, 2), groups=16, bias=False)
                  (bn): BatchNorm2d(16, eps=1e-05, momentum=0.1, affine=True, track_running_stats=True)
                )
              )
              (proj): Sequential(
                (0): ReLU()
                (1): Conv2d_BN(
                  (c): Conv2d(192, 192, kernel_size=(1, 1), stride=(1, 1), bias=False)
                  (bn): BatchNorm2d(192, eps=1e-05, momentum=0.1, affine=True, track_running_stats=True)
                )
              )
            )
          )
        )
        (dw1): Residual(
          (m): Conv2d_BN(
            (c): Conv2d(192, 192, kernel_size=(3, 3), stride=(1, 1), padding=(1, 1), groups=192, bias=False)
            (bn): BatchNorm2d(192, eps=1e-05, momentum=0.1, affine=True, track_running_stats=True)
          )
        )
        (ffn1): Residual(
          (m): FFN(
            (pw1): Conv2d_BN(
              (c): Conv2d(192, 384, kernel_size=(1, 1), stride=(1, 1), bias=False)
              (bn): BatchNorm2d(384, eps=1e-05, momentum=0.1, affine=True, track_running_stats=True)
            )
            (act): ReLU()
            (pw2): Conv2d_BN(
              (c): Conv2d(384, 192, kernel_size=(1, 1), stride=(1, 1), bias=False)
              (bn): BatchNorm2d(192, eps=1e-05, momentum=0.1, affine=True, track_running_stats=True)
            )
          )
        )
      )
      (4): EfficientViTBlock(
        (dw0): Residual(
          (m): Conv2d_BN(
            (c): Conv2d(192, 192, kernel_size=(3, 3), stride=(1, 1), padding=(1, 1), groups=192, bias=False)
            (bn): BatchNorm2d(192, eps=1e-05, momentum=0.1, affine=True, track_running_stats=True)
          )
        )
        (ffn0): Residual(
          (m): FFN(
            (pw1): Conv2d_BN(
              (c): Conv2d(192, 384, kernel_size=(1, 1), stride=(1, 1), bias=False)
              (bn): BatchNorm2d(384, eps=1e-05, momentum=0.1, affine=True, track_running_stats=True)
            )
            (act): ReLU()
            (pw2): Conv2d_BN(
              (c): Conv2d(384, 192, kernel_size=(1, 1), stride=(1, 1), bias=False)
              (bn): BatchNorm2d(192, eps=1e-05, momentum=0.1, affine=True, track_running_stats=True)
            )
          )
        )
        (mixer): Residual(
          (m): LocalWindowAttention(
            (attn): CascadedGroupAttention(
              (qkvs): ModuleList(
                (0-3): 4 x Conv2d_BN(
                  (c): Conv2d(48, 80, kernel_size=(1, 1), stride=(1, 1), bias=False)
                  (bn): BatchNorm2d(80, eps=1e-05, momentum=0.1, affine=True, track_running_stats=True)
                )
              )
              (dws): ModuleList(
                (0-3): 4 x Conv2d_BN(
                  (c): Conv2d(16, 16, kernel_size=(5, 5), stride=(1, 1), padding=(2, 2), groups=16, bias=False)
                  (bn): BatchNorm2d(16, eps=1e-05, momentum=0.1, affine=True, track_running_stats=True)
                )
              )
              (proj): Sequential(
                (0): ReLU()
                (1): Conv2d_BN(
                  (c): Conv2d(192, 192, kernel_size=(1, 1), stride=(1, 1), bias=False)
                  (bn): BatchNorm2d(192, eps=1e-05, momentum=0.1, affine=True, track_running_stats=True)
                )
              )
            )
          )
        )
        (dw1): Residual(
          (m): Conv2d_BN(
            (c): Conv2d(192, 192, kernel_size=(3, 3), stride=(1, 1), padding=(1, 1), groups=192, bias=False)
            (bn): BatchNorm2d(192, eps=1e-05, momentum=0.1, affine=True, track_running_stats=True)
          )
        )
        (ffn1): Residual(
          (m): FFN(
            (pw1): Conv2d_BN(
              (c): Conv2d(192, 384, kernel_size=(1, 1), stride=(1, 1), bias=False)
              (bn): BatchNorm2d(384, eps=1e-05, momentum=0.1, affine=True, track_running_stats=True)
            )
            (act): ReLU()
            (pw2): Conv2d_BN(
              (c): Conv2d(384, 192, kernel_size=(1, 1), stride=(1, 1), bias=False)
              (bn): BatchNorm2d(192, eps=1e-05, momentum=0.1, affine=True, track_running_stats=True)
            )
          )
        )
      )
      (5): EfficientViTBlock(
        (dw0): Residual(
          (m): Conv2d_BN(
            (c): Conv2d(192, 192, kernel_size=(3, 3), stride=(1, 1), padding=(1, 1), groups=192, bias=False)
            (bn): BatchNorm2d(192, eps=1e-05, momentum=0.1, affine=True, track_running_stats=True)
          )
        )
        (ffn0): Residual(
          (m): FFN(
            (pw1): Conv2d_BN(
              (c): Conv2d(192, 384, kernel_size=(1, 1), stride=(1, 1), bias=False)
              (bn): BatchNorm2d(384, eps=1e-05, momentum=0.1, affine=True, track_running_stats=True)
            )
            (act): ReLU()
            (pw2): Conv2d_BN(
              (c): Conv2d(384, 192, kernel_size=(1, 1), stride=(1, 1), bias=False)
              (bn): BatchNorm2d(192, eps=1e-05, momentum=0.1, affine=True, track_running_stats=True)
            )
          )
        )
        (mixer): Residual(
          (m): LocalWindowAttention(
            (attn): CascadedGroupAttention(
              (qkvs): ModuleList(
                (0-3): 4 x Conv2d_BN(
                  (c): Conv2d(48, 80, kernel_size=(1, 1), stride=(1, 1), bias=False)
                  (bn): BatchNorm2d(80, eps=1e-05, momentum=0.1, affine=True, track_running_stats=True)
                )
              )
              (dws): ModuleList(
                (0-3): 4 x Conv2d_BN(
                  (c): Conv2d(16, 16, kernel_size=(5, 5), stride=(1, 1), padding=(2, 2), groups=16, bias=False)
                  (bn): BatchNorm2d(16, eps=1e-05, momentum=0.1, affine=True, track_running_stats=True)
                )
              )
              (proj): Sequential(
                (0): ReLU()
                (1): Conv2d_BN(
                  (c): Conv2d(192, 192, kernel_size=(1, 1), stride=(1, 1), bias=False)
                  (bn): BatchNorm2d(192, eps=1e-05, momentum=0.1, affine=True, track_running_stats=True)
                )
              )
            )
          )
        )
        (dw1): Residual(
          (m): Conv2d_BN(
            (c): Conv2d(192, 192, kernel_size=(3, 3), stride=(1, 1), padding=(1, 1), groups=192, bias=False)
            (bn): BatchNorm2d(192, eps=1e-05, momentum=0.1, affine=True, track_running_stats=True)
          )
        )
        (ffn1): Residual(
          (m): FFN(
            (pw1): Conv2d_BN(
              (c): Conv2d(192, 384, kernel_size=(1, 1), stride=(1, 1), bias=False)
              (bn): BatchNorm2d(384, eps=1e-05, momentum=0.1, affine=True, track_running_stats=True)
            )
            (act): ReLU()
            (pw2): Conv2d_BN(
              (c): Conv2d(384, 192, kernel_size=(1, 1), stride=(1, 1), bias=False)
              (bn): BatchNorm2d(192, eps=1e-05, momentum=0.1, affine=True, track_running_stats=True)
            )
          )
        )
      )
    )
    (head): BN_Linear(
      (bn): BatchNorm1d(192, eps=1e-05, momentum=0.1, affine=True, track_running_stats=True)
      (l): Linear(in_features=192, out_features=100, bias=True)
    )
  )
)MyEfficientViT(
  (patch_emb): OverlapPatchEmbedding(
    (proj): Sequential(
      (0): Conv_BN(
        (conv): Conv2d(3, 8, kernel_size=(3, 3), stride=(2, 2), padding=(1, 1), bias=False)
        (bn): BatchNorm2d(8, eps=1e-05, momentum=0.1, affine=True, track_running_stats=True)
      )
      (1): ReLU()
      (2): Conv_BN(
        (conv): Conv2d(8, 16, kernel_size=(3, 3), stride=(2, 2), padding=(1, 1), bias=False)
        (bn): BatchNorm2d(16, eps=1e-05, momentum=0.1, affine=True, track_running_stats=True)
      )
      (3): ReLU()
      (4): Conv_BN(
        (conv): Conv2d(16, 32, kernel_size=(3, 3), stride=(2, 2), padding=(1, 1), bias=False)
        (bn): BatchNorm2d(32, eps=1e-05, momentum=0.1, affine=True, track_running_stats=True)
      )
      (5): ReLU()
      (6): Conv_BN(
        (conv): Conv2d(32, 64, kernel_size=(3, 3), stride=(2, 2), padding=(1, 1), bias=False)
        (bn): BatchNorm2d(64, eps=1e-05, momentum=0.1, affine=True, track_running_stats=True)
      )
      (7): ReLU()
    )
  )
  (evit1): Sequential(
    (evit1_1): EfficientVitBlock(
      (att): LocalWindowAttention(
        (attn): CascadedGroupAttention(
          (p): Conv_BN(
            (conv): Conv2d(64, 64, kernel_size=(1, 1), stride=(1, 1), bias=False)
            (bn): BatchNorm2d(64, eps=1e-05, momentum=0.1, affine=True, track_running_stats=True)
          )
          (act): ReLU()
        )
      )
    )
  )
  (evit2): Sequential(
    (evit2_1): EfficientVitBlock(
      (att): LocalWindowAttention(
        (attn): CascadedGroupAttention(
          (p): Conv_BN(
            (conv): Conv2d(128, 128, kernel_size=(1, 1), stride=(1, 1), bias=False)
            (bn): BatchNorm2d(128, eps=1e-05, momentum=0.1, affine=True, track_running_stats=True)
          )
          (act): ReLU()
        )
      )
    )
    (evit2_2): EfficientVitBlock(
      (att): LocalWindowAttention(
        (attn): CascadedGroupAttention(
          (p): Conv_BN(
            (conv): Conv2d(128, 128, kernel_size=(1, 1), stride=(1, 1), bias=False)
            (bn): BatchNorm2d(128, eps=1e-05, momentum=0.1, affine=True, track_running_stats=True)
          )
          (act): ReLU()
        )
      )
    )
  )
  (evit3): Sequential(
    (evit2_1): EfficientVitBlock(
      (att): LocalWindowAttention(
        (attn): CascadedGroupAttention(
          (p): Conv_BN(
            (conv): Conv2d(192, 192, kernel_size=(1, 1), stride=(1, 1), bias=False)
            (bn): BatchNorm2d(192, eps=1e-05, momentum=0.1, affine=True, track_running_stats=True)
          )
          (act): ReLU()
        )
      )
    )
    (evit2_2): EfficientVitBlock(
      (att): LocalWindowAttention(
        (attn): CascadedGroupAttention(
          (p): Conv_BN(
            (conv): Conv2d(192, 192, kernel_size=(1, 1), stride=(1, 1), bias=False)
            (bn): BatchNorm2d(192, eps=1e-05, momentum=0.1, affine=True, track_running_stats=True)
          )
          (act): ReLU()
        )
      )
    )
    (evit2_3): EfficientVitBlock(
      (att): LocalWindowAttention(
        (attn): CascadedGroupAttention(
          (p): Conv_BN(
            (conv): Conv2d(192, 192, kernel_size=(1, 1), stride=(1, 1), bias=False)
            (bn): BatchNorm2d(192, eps=1e-05, momentum=0.1, affine=True, track_running_stats=True)
          )
          (act): ReLU()
        )
      )
    )
  )
  (subs1): SubSamplingBlock(
    (dwconv): InvertedResidualBlock(
      (conv1): Conv_BN(
        (conv): Conv2d(64, 256, kernel_size=(1, 1), stride=(1, 1), bias=False)
        (bn): BatchNorm2d(256, eps=1e-05, momentum=0.1, affine=True, track_running_stats=True)
      )
      (act1): ReLU()
      (conv2): Conv_BN(
        (conv): Conv2d(256, 256, kernel_size=(3, 3), stride=(2, 2), padding=(1, 1), groups=256, bias=False)
        (bn): BatchNorm2d(256, eps=1e-05, momentum=0.1, affine=True, track_running_stats=True)
      )
      (se): SqueezeExcite(
        (ap): AdaptiveAvgPool2d(output_size=(1, 1))
        (fc1): Conv2d(256, 64, kernel_size=(1, 1), stride=(1, 1))
        (act1): ReLU()
        (fc2): Conv2d(64, 256, kernel_size=(1, 1), stride=(1, 1))
        (act2): Sigmoid()
      )
      (conv3): Conv_BN(
        (conv): Conv2d(256, 128, kernel_size=(1, 1), stride=(1, 1), bias=False)
        (bn): BatchNorm2d(128, eps=1e-05, momentum=0.1, affine=True, track_running_stats=True)
      )
    )
  )
  (subs2): SubSamplingBlock(
    (dwconv): InvertedResidualBlock(
      (conv1): Conv_BN(
        (conv): Conv2d(128, 512, kernel_size=(1, 1), stride=(1, 1), bias=False)
        (bn): BatchNorm2d(512, eps=1e-05, momentum=0.1, affine=True, track_running_stats=True)
      )
      (act1): ReLU()
      (conv2): Conv_BN(
        (conv): Conv2d(512, 512, kernel_size=(3, 3), stride=(2, 2), padding=(1, 1), groups=512, bias=False)
        (bn): BatchNorm2d(512, eps=1e-05, momentum=0.1, affine=True, track_running_stats=True)
      )
      (se): SqueezeExcite(
        (ap): AdaptiveAvgPool2d(output_size=(1, 1))
        (fc1): Conv2d(512, 128, kernel_size=(1, 1), stride=(1, 1))
        (act1): ReLU()
        (fc2): Conv2d(128, 512, kernel_size=(1, 1), stride=(1, 1))
        (act2): Sigmoid()
      )
      (conv3): Conv_BN(
        (conv): Conv2d(512, 192, kernel_size=(1, 1), stride=(1, 1), bias=False)
        (bn): BatchNorm2d(192, eps=1e-05, momentum=0.1, affine=True, track_running_stats=True)
      )
    )
  )
  (output): OutputLayer(
    (pool): AdaptiveAvgPool2d(output_size=(1, 1))
    (fc): BN_Linear(
      (bn): BatchNorm1d(192, eps=1e-05, momentum=0.1, affine=True, track_running_stats=True)
      (linear): Linear(in_features=192, out_features=100, bias=True)
    )
  )
)MyEfficientViT(
  (patch_emb): OverlapPatchEmbedding(
    (proj): Sequential(
      (0): Conv_BN(
        (conv): Conv2d(3, 8, kernel_size=(3, 3), stride=(2, 2), padding=(1, 1), bias=False)
        (bn): BatchNorm2d(8, eps=1e-05, momentum=0.1, affine=True, track_running_stats=True)
      )
      (1): ReLU()
      (2): Conv_BN(
        (conv): Conv2d(8, 16, kernel_size=(3, 3), stride=(2, 2), padding=(1, 1), bias=False)
        (bn): BatchNorm2d(16, eps=1e-05, momentum=0.1, affine=True, track_running_stats=True)
      )
      (3): ReLU()
      (4): Conv_BN(
        (conv): Conv2d(16, 32, kernel_size=(3, 3), stride=(2, 2), padding=(1, 1), bias=False)
        (bn): BatchNorm2d(32, eps=1e-05, momentum=0.1, affine=True, track_running_stats=True)
      )
      (5): ReLU()
      (6): Conv_BN(
        (conv): Conv2d(32, 64, kernel_size=(3, 3), stride=(2, 2), padding=(1, 1), bias=False)
        (bn): BatchNorm2d(64, eps=1e-05, momentum=0.1, affine=True, track_running_stats=True)
      )
      (7): ReLU()
    )
  )
  (evit1): Sequential(
    (evit1_1): EfficientVitBlock(
      (att): LocalWindowAttention(
        (attn): CascadedGroupAttention(
          (p): Conv_BN(
            (conv): Conv2d(64, 64, kernel_size=(1, 1), stride=(1, 1), bias=False)
            (bn): BatchNorm2d(64, eps=1e-05, momentum=0.1, affine=True, track_running_stats=True)
          )
          (act): ReLU()
        )
      )
    )
  )
  (evit2): Sequential(
    (evit2_1): EfficientVitBlock(
      (att): LocalWindowAttention(
        (attn): CascadedGroupAttention(
          (p): Conv_BN(
            (conv): Conv2d(128, 128, kernel_size=(1, 1), stride=(1, 1), bias=False)
            (bn): BatchNorm2d(128, eps=1e-05, momentum=0.1, affine=True, track_running_stats=True)
          )
          (act): ReLU()
        )
      )
    )
    (evit2_2): EfficientVitBlock(
      (att): LocalWindowAttention(
        (attn): CascadedGroupAttention(
          (p): Conv_BN(
            (conv): Conv2d(128, 128, kernel_size=(1, 1), stride=(1, 1), bias=False)
            (bn): BatchNorm2d(128, eps=1e-05, momentum=0.1, affine=True, track_running_stats=True)
          )
          (act): ReLU()
        )
      )
    )
  )
  (evit3): Sequential(
    (evit2_1): EfficientVitBlock(
      (att): LocalWindowAttention(
        (attn): CascadedGroupAttention(
          (p): Conv_BN(
            (conv): Conv2d(192, 192, kernel_size=(1, 1), stride=(1, 1), bias=False)
            (bn): BatchNorm2d(192, eps=1e-05, momentum=0.1, affine=True, track_running_stats=True)
          )
          (act): ReLU()
        )
      )
    )
    (evit2_2): EfficientVitBlock(
      (att): LocalWindowAttention(
        (attn): CascadedGroupAttention(
          (p): Conv_BN(
            (conv): Conv2d(192, 192, kernel_size=(1, 1), stride=(1, 1), bias=False)
            (bn): BatchNorm2d(192, eps=1e-05, momentum=0.1, affine=True, track_running_stats=True)
          )
          (act): ReLU()
        )
      )
    )
    (evit2_3): EfficientVitBlock(
      (att): LocalWindowAttention(
        (attn): CascadedGroupAttention(
          (p): Conv_BN(
            (conv): Conv2d(192, 192, kernel_size=(1, 1), stride=(1, 1), bias=False)
            (bn): BatchNorm2d(192, eps=1e-05, momentum=0.1, affine=True, track_running_stats=True)
          )
          (act): ReLU()
        )
      )
    )
  )
  (subs1): SubSamplingBlock(
    (dwconv): InvertedResidualBlock(
      (conv1): Conv_BN(
        (conv): Conv2d(64, 256, kernel_size=(1, 1), stride=(1, 1), bias=False)
        (bn): BatchNorm2d(256, eps=1e-05, momentum=0.1, affine=True, track_running_stats=True)
      )
      (act1): ReLU()
      (conv2): Conv_BN(
        (conv): Conv2d(256, 256, kernel_size=(3, 3), stride=(2, 2), padding=(1, 1), groups=256, bias=False)
        (bn): BatchNorm2d(256, eps=1e-05, momentum=0.1, affine=True, track_running_stats=True)
      )
      (se): SqueezeExcite(
        (ap): AdaptiveAvgPool2d(output_size=(1, 1))
        (fc1): Conv2d(256, 64, kernel_size=(1, 1), stride=(1, 1))
        (act1): ReLU()
        (fc2): Conv2d(64, 256, kernel_size=(1, 1), stride=(1, 1))
        (act2): Sigmoid()
      )
      (conv3): Conv_BN(
        (conv): Conv2d(256, 128, kernel_size=(1, 1), stride=(1, 1), bias=False)
        (bn): BatchNorm2d(128, eps=1e-05, momentum=0.1, affine=True, track_running_stats=True)
      )
    )
  )
  (subs2): SubSamplingBlock(
    (dwconv): InvertedResidualBlock(
      (conv1): Conv_BN(
        (conv): Conv2d(128, 512, kernel_size=(1, 1), stride=(1, 1), bias=False)
        (bn): BatchNorm2d(512, eps=1e-05, momentum=0.1, affine=True, track_running_stats=True)
      )
      (act1): ReLU()
      (conv2): Conv_BN(
        (conv): Conv2d(512, 512, kernel_size=(3, 3), stride=(2, 2), padding=(1, 1), groups=512, bias=False)
        (bn): BatchNorm2d(512, eps=1e-05, momentum=0.1, affine=True, track_running_stats=True)
      )
      (se): SqueezeExcite(
        (ap): AdaptiveAvgPool2d(output_size=(1, 1))
        (fc1): Conv2d(512, 128, kernel_size=(1, 1), stride=(1, 1))
        (act1): ReLU()
        (fc2): Conv2d(128, 512, kernel_size=(1, 1), stride=(1, 1))
        (act2): Sigmoid()
      )
      (conv3): Conv_BN(
        (conv): Conv2d(512, 192, kernel_size=(1, 1), stride=(1, 1), bias=False)
        (bn): BatchNorm2d(192, eps=1e-05, momentum=0.1, affine=True, track_running_stats=True)
      )
    )
  )
  (output): OutputLayer(
    (pool): AdaptiveAvgPool2d(output_size=(1, 1))
    (fc): BN_Linear(
      (bn): BatchNorm1d(192, eps=1e-05, momentum=0.1, affine=True, track_running_stats=True)
      (linear): Linear(in_features=192, out_features=100, bias=True)
    )
  )
)MyEfficientViT(
  (patch_emb): OverlapPatchEmbedding(
    (proj): Sequential(
      (0): Conv_BN(
        (conv): Conv2d(3, 8, kernel_size=(3, 3), stride=(2, 2), padding=(1, 1), bias=False)
        (bn): BatchNorm2d(8, eps=1e-05, momentum=0.1, affine=True, track_running_stats=True)
      )
      (1): ReLU()
      (2): Conv_BN(
        (conv): Conv2d(8, 16, kernel_size=(3, 3), stride=(2, 2), padding=(1, 1), bias=False)
        (bn): BatchNorm2d(16, eps=1e-05, momentum=0.1, affine=True, track_running_stats=True)
      )
      (3): ReLU()
      (4): Conv_BN(
        (conv): Conv2d(16, 32, kernel_size=(3, 3), stride=(2, 2), padding=(1, 1), bias=False)
        (bn): BatchNorm2d(32, eps=1e-05, momentum=0.1, affine=True, track_running_stats=True)
      )
      (5): ReLU()
      (6): Conv_BN(
        (conv): Conv2d(32, 64, kernel_size=(3, 3), stride=(2, 2), padding=(1, 1), bias=False)
        (bn): BatchNorm2d(64, eps=1e-05, momentum=0.1, affine=True, track_running_stats=True)
      )
      (7): ReLU()
    )
  )
  (evit1): Sequential(
    (evit1_1): EfficientVitBlock(
      (att): LocalWindowAttention(
        (attn): CascadedGroupAttention(
          (p): Conv_BN(
            (conv): Conv2d(64, 64, kernel_size=(1, 1), stride=(1, 1), bias=False)
            (bn): BatchNorm2d(64, eps=1e-05, momentum=0.1, affine=True, track_running_stats=True)
          )
          (act): ReLU()
        )
      )
    )
  )
  (evit2): Sequential(
    (evit2_1): EfficientVitBlock(
      (att): LocalWindowAttention(
        (attn): CascadedGroupAttention(
          (p): Conv_BN(
            (conv): Conv2d(128, 128, kernel_size=(1, 1), stride=(1, 1), bias=False)
            (bn): BatchNorm2d(128, eps=1e-05, momentum=0.1, affine=True, track_running_stats=True)
          )
          (act): ReLU()
        )
      )
    )
    (evit2_2): EfficientVitBlock(
      (att): LocalWindowAttention(
        (attn): CascadedGroupAttention(
          (p): Conv_BN(
            (conv): Conv2d(128, 128, kernel_size=(1, 1), stride=(1, 1), bias=False)
            (bn): BatchNorm2d(128, eps=1e-05, momentum=0.1, affine=True, track_running_stats=True)
          )
          (act): ReLU()
        )
      )
    )
  )
  (evit3): Sequential(
    (evit2_1): EfficientVitBlock(
      (att): LocalWindowAttention(
        (attn): CascadedGroupAttention(
          (p): Conv_BN(
            (conv): Conv2d(192, 192, kernel_size=(1, 1), stride=(1, 1), bias=False)
            (bn): BatchNorm2d(192, eps=1e-05, momentum=0.1, affine=True, track_running_stats=True)
          )
          (act): ReLU()
        )
      )
    )
    (evit2_2): EfficientVitBlock(
      (att): LocalWindowAttention(
        (attn): CascadedGroupAttention(
          (p): Conv_BN(
            (conv): Conv2d(192, 192, kernel_size=(1, 1), stride=(1, 1), bias=False)
            (bn): BatchNorm2d(192, eps=1e-05, momentum=0.1, affine=True, track_running_stats=True)
          )
          (act): ReLU()
        )
      )
    )
    (evit2_3): EfficientVitBlock(
      (att): LocalWindowAttention(
        (attn): CascadedGroupAttention(
          (p): Conv_BN(
            (conv): Conv2d(192, 192, kernel_size=(1, 1), stride=(1, 1), bias=False)
            (bn): BatchNorm2d(192, eps=1e-05, momentum=0.1, affine=True, track_running_stats=True)
          )
          (act): ReLU()
        )
      )
    )
  )
  (subs1): SubSamplingBlock(
    (dwconv): InvertedResidualBlock(
      (conv1): Conv_BN(
        (conv): Conv2d(64, 256, kernel_size=(1, 1), stride=(1, 1), bias=False)
        (bn): BatchNorm2d(256, eps=1e-05, momentum=0.1, affine=True, track_running_stats=True)
      )
      (act1): ReLU()
      (conv2): Conv_BN(
        (conv): Conv2d(256, 256, kernel_size=(3, 3), stride=(2, 2), padding=(1, 1), groups=256, bias=False)
        (bn): BatchNorm2d(256, eps=1e-05, momentum=0.1, affine=True, track_running_stats=True)
      )
      (se): SqueezeExcite(
        (ap): AdaptiveAvgPool2d(output_size=(1, 1))
        (fc1): Conv2d(256, 64, kernel_size=(1, 1), stride=(1, 1))
        (act1): ReLU()
        (fc2): Conv2d(64, 256, kernel_size=(1, 1), stride=(1, 1))
        (act2): Sigmoid()
      )
      (conv3): Conv_BN(
        (conv): Conv2d(256, 128, kernel_size=(1, 1), stride=(1, 1), bias=False)
        (bn): BatchNorm2d(128, eps=1e-05, momentum=0.1, affine=True, track_running_stats=True)
      )
    )
  )
  (subs2): SubSamplingBlock(
    (dwconv): InvertedResidualBlock(
      (conv1): Conv_BN(
        (conv): Conv2d(128, 512, kernel_size=(1, 1), stride=(1, 1), bias=False)
        (bn): BatchNorm2d(512, eps=1e-05, momentum=0.1, affine=True, track_running_stats=True)
      )
      (act1): ReLU()
      (conv2): Conv_BN(
        (conv): Conv2d(512, 512, kernel_size=(3, 3), stride=(2, 2), padding=(1, 1), groups=512, bias=False)
        (bn): BatchNorm2d(512, eps=1e-05, momentum=0.1, affine=True, track_running_stats=True)
      )
      (se): SqueezeExcite(
        (ap): AdaptiveAvgPool2d(output_size=(1, 1))
        (fc1): Conv2d(512, 128, kernel_size=(1, 1), stride=(1, 1))
        (act1): ReLU()
        (fc2): Conv2d(128, 512, kernel_size=(1, 1), stride=(1, 1))
        (act2): Sigmoid()
      )
      (conv3): Conv_BN(
        (conv): Conv2d(512, 192, kernel_size=(1, 1), stride=(1, 1), bias=False)
        (bn): BatchNorm2d(192, eps=1e-05, momentum=0.1, affine=True, track_running_stats=True)
      )
    )
  )
  (output): OutputLayer(
    (pool): AdaptiveAvgPool2d(output_size=(1, 1))
    (fc): BN_Linear(
      (bn): BatchNorm1d(192, eps=1e-05, momentum=0.1, affine=True, track_running_stats=True)
      (linear): Linear(in_features=192, out_features=100, bias=True)
    )
  )
)MyEfficientViT(
  (patch_emb): OverlapPatchEmbedding(
    (proj): Sequential(
      (0): Conv_BN(
        (conv): Conv2d(3, 8, kernel_size=(3, 3), stride=(2, 2), padding=(1, 1), bias=False)
        (bn): BatchNorm2d(8, eps=1e-05, momentum=0.1, affine=True, track_running_stats=True)
      )
      (1): ReLU()
      (2): Conv_BN(
        (conv): Conv2d(8, 16, kernel_size=(3, 3), stride=(2, 2), padding=(1, 1), bias=False)
        (bn): BatchNorm2d(16, eps=1e-05, momentum=0.1, affine=True, track_running_stats=True)
      )
      (3): ReLU()
      (4): Conv_BN(
        (conv): Conv2d(16, 32, kernel_size=(3, 3), stride=(2, 2), padding=(1, 1), bias=False)
        (bn): BatchNorm2d(32, eps=1e-05, momentum=0.1, affine=True, track_running_stats=True)
      )
      (5): ReLU()
      (6): Conv_BN(
        (conv): Conv2d(32, 64, kernel_size=(3, 3), stride=(2, 2), padding=(1, 1), bias=False)
        (bn): BatchNorm2d(64, eps=1e-05, momentum=0.1, affine=True, track_running_stats=True)
      )
      (7): ReLU()
    )
  )
  (evit1): Sequential(
    (evit1_1): EfficientVitBlock(
      (att): LocalWindowAttention(
        (attn): CascadedGroupAttention(
          (p): Conv_BN(
            (conv): Conv2d(64, 64, kernel_size=(1, 1), stride=(1, 1), bias=False)
            (bn): BatchNorm2d(64, eps=1e-05, momentum=0.1, affine=True, track_running_stats=True)
          )
          (act): ReLU()
        )
      )
    )
  )
  (evit2): Sequential(
    (evit2_1): EfficientVitBlock(
      (att): LocalWindowAttention(
        (attn): CascadedGroupAttention(
          (p): Conv_BN(
            (conv): Conv2d(128, 128, kernel_size=(1, 1), stride=(1, 1), bias=False)
            (bn): BatchNorm2d(128, eps=1e-05, momentum=0.1, affine=True, track_running_stats=True)
          )
          (act): ReLU()
        )
      )
    )
    (evit2_2): EfficientVitBlock(
      (att): LocalWindowAttention(
        (attn): CascadedGroupAttention(
          (p): Conv_BN(
            (conv): Conv2d(128, 128, kernel_size=(1, 1), stride=(1, 1), bias=False)
            (bn): BatchNorm2d(128, eps=1e-05, momentum=0.1, affine=True, track_running_stats=True)
          )
          (act): ReLU()
        )
      )
    )
  )
  (evit3): Sequential(
    (evit2_1): EfficientVitBlock(
      (att): LocalWindowAttention(
        (attn): CascadedGroupAttention(
          (p): Conv_BN(
            (conv): Conv2d(192, 192, kernel_size=(1, 1), stride=(1, 1), bias=False)
            (bn): BatchNorm2d(192, eps=1e-05, momentum=0.1, affine=True, track_running_stats=True)
          )
          (act): ReLU()
        )
      )
    )
    (evit2_2): EfficientVitBlock(
      (att): LocalWindowAttention(
        (attn): CascadedGroupAttention(
          (p): Conv_BN(
            (conv): Conv2d(192, 192, kernel_size=(1, 1), stride=(1, 1), bias=False)
            (bn): BatchNorm2d(192, eps=1e-05, momentum=0.1, affine=True, track_running_stats=True)
          )
          (act): ReLU()
        )
      )
    )
    (evit2_3): EfficientVitBlock(
      (att): LocalWindowAttention(
        (attn): CascadedGroupAttention(
          (p): Conv_BN(
            (conv): Conv2d(192, 192, kernel_size=(1, 1), stride=(1, 1), bias=False)
            (bn): BatchNorm2d(192, eps=1e-05, momentum=0.1, affine=True, track_running_stats=True)
          )
          (act): ReLU()
        )
      )
    )
  )
  (subs1): SubSamplingBlock(
    (dwconv): InvertedResidualBlock(
      (conv1): Conv_BN(
        (conv): Conv2d(64, 256, kernel_size=(1, 1), stride=(1, 1), bias=False)
        (bn): BatchNorm2d(256, eps=1e-05, momentum=0.1, affine=True, track_running_stats=True)
      )
      (act1): ReLU()
      (conv2): Conv_BN(
        (conv): Conv2d(256, 256, kernel_size=(3, 3), stride=(2, 2), padding=(1, 1), groups=256, bias=False)
        (bn): BatchNorm2d(256, eps=1e-05, momentum=0.1, affine=True, track_running_stats=True)
      )
      (se): SqueezeExcite(
        (ap): AdaptiveAvgPool2d(output_size=(1, 1))
        (fc1): Conv2d(256, 64, kernel_size=(1, 1), stride=(1, 1))
        (act1): ReLU()
        (fc2): Conv2d(64, 256, kernel_size=(1, 1), stride=(1, 1))
        (act2): Sigmoid()
      )
      (conv3): Conv_BN(
        (conv): Conv2d(256, 128, kernel_size=(1, 1), stride=(1, 1), bias=False)
        (bn): BatchNorm2d(128, eps=1e-05, momentum=0.1, affine=True, track_running_stats=True)
      )
    )
  )
  (subs2): SubSamplingBlock(
    (dwconv): InvertedResidualBlock(
      (conv1): Conv_BN(
        (conv): Conv2d(128, 512, kernel_size=(1, 1), stride=(1, 1), bias=False)
        (bn): BatchNorm2d(512, eps=1e-05, momentum=0.1, affine=True, track_running_stats=True)
      )
      (act1): ReLU()
      (conv2): Conv_BN(
        (conv): Conv2d(512, 512, kernel_size=(3, 3), stride=(2, 2), padding=(1, 1), groups=512, bias=False)
        (bn): BatchNorm2d(512, eps=1e-05, momentum=0.1, affine=True, track_running_stats=True)
      )
      (se): SqueezeExcite(
        (ap): AdaptiveAvgPool2d(output_size=(1, 1))
        (fc1): Conv2d(512, 128, kernel_size=(1, 1), stride=(1, 1))
        (act1): ReLU()
        (fc2): Conv2d(128, 512, kernel_size=(1, 1), stride=(1, 1))
        (act2): Sigmoid()
      )
      (conv3): Conv_BN(
        (conv): Conv2d(512, 192, kernel_size=(1, 1), stride=(1, 1), bias=False)
        (bn): BatchNorm2d(192, eps=1e-05, momentum=0.1, affine=True, track_running_stats=True)
      )
    )
  )
  (output): OutputLayer(
    (pool): AdaptiveAvgPool2d(output_size=(1, 1))
    (fc): BN_Linear(
      (bn): BatchNorm1d(192, eps=1e-05, momentum=0.1, affine=True, track_running_stats=True)
      (linear): Linear(in_features=192, out_features=100, bias=True)
    )
  )
)MyEfficientViT(
  (patch_emb): OverlapPatchEmbedding(
    (proj): Sequential(
      (0): Conv_BN(
        (conv): Conv2d(3, 8, kernel_size=(3, 3), stride=(2, 2), padding=(1, 1), bias=False)
        (bn): BatchNorm2d(8, eps=1e-05, momentum=0.1, affine=True, track_running_stats=True)
      )
      (1): ReLU()
      (2): Conv_BN(
        (conv): Conv2d(8, 16, kernel_size=(3, 3), stride=(2, 2), padding=(1, 1), bias=False)
        (bn): BatchNorm2d(16, eps=1e-05, momentum=0.1, affine=True, track_running_stats=True)
      )
      (3): ReLU()
      (4): Conv_BN(
        (conv): Conv2d(16, 32, kernel_size=(3, 3), stride=(2, 2), padding=(1, 1), bias=False)
        (bn): BatchNorm2d(32, eps=1e-05, momentum=0.1, affine=True, track_running_stats=True)
      )
      (5): ReLU()
      (6): Conv_BN(
        (conv): Conv2d(32, 64, kernel_size=(3, 3), stride=(2, 2), padding=(1, 1), bias=False)
        (bn): BatchNorm2d(64, eps=1e-05, momentum=0.1, affine=True, track_running_stats=True)
      )
      (7): ReLU()
    )
  )
  (evit1): Sequential(
    (evit1_1): EfficientVitBlock(
      (att): LocalWindowAttention(
        (attn): CascadedGroupAttention(
          (p): Conv_BN(
            (conv): Conv2d(64, 64, kernel_size=(1, 1), stride=(1, 1), bias=False)
            (bn): BatchNorm2d(64, eps=1e-05, momentum=0.1, affine=True, track_running_stats=True)
          )
          (act): ReLU()
        )
      )
    )
  )
  (evit2): Sequential(
    (evit2_1): EfficientVitBlock(
      (att): LocalWindowAttention(
        (attn): CascadedGroupAttention(
          (p): Conv_BN(
            (conv): Conv2d(128, 128, kernel_size=(1, 1), stride=(1, 1), bias=False)
            (bn): BatchNorm2d(128, eps=1e-05, momentum=0.1, affine=True, track_running_stats=True)
          )
          (act): ReLU()
        )
      )
    )
    (evit2_2): EfficientVitBlock(
      (att): LocalWindowAttention(
        (attn): CascadedGroupAttention(
          (p): Conv_BN(
            (conv): Conv2d(128, 128, kernel_size=(1, 1), stride=(1, 1), bias=False)
            (bn): BatchNorm2d(128, eps=1e-05, momentum=0.1, affine=True, track_running_stats=True)
          )
          (act): ReLU()
        )
      )
    )
  )
  (evit3): Sequential(
    (evit2_1): EfficientVitBlock(
      (att): LocalWindowAttention(
        (attn): CascadedGroupAttention(
          (p): Conv_BN(
            (conv): Conv2d(192, 192, kernel_size=(1, 1), stride=(1, 1), bias=False)
            (bn): BatchNorm2d(192, eps=1e-05, momentum=0.1, affine=True, track_running_stats=True)
          )
          (act): ReLU()
        )
      )
    )
    (evit2_2): EfficientVitBlock(
      (att): LocalWindowAttention(
        (attn): CascadedGroupAttention(
          (p): Conv_BN(
            (conv): Conv2d(192, 192, kernel_size=(1, 1), stride=(1, 1), bias=False)
            (bn): BatchNorm2d(192, eps=1e-05, momentum=0.1, affine=True, track_running_stats=True)
          )
          (act): ReLU()
        )
      )
    )
    (evit2_3): EfficientVitBlock(
      (att): LocalWindowAttention(
        (attn): CascadedGroupAttention(
          (p): Conv_BN(
            (conv): Conv2d(192, 192, kernel_size=(1, 1), stride=(1, 1), bias=False)
            (bn): BatchNorm2d(192, eps=1e-05, momentum=0.1, affine=True, track_running_stats=True)
          )
          (act): ReLU()
        )
      )
    )
  )
  (subs1): SubSamplingBlock(
    (dwconv): InvertedResidualBlock(
      (conv1): Conv_BN(
        (conv): Conv2d(64, 256, kernel_size=(1, 1), stride=(1, 1), bias=False)
        (bn): BatchNorm2d(256, eps=1e-05, momentum=0.1, affine=True, track_running_stats=True)
      )
      (act1): ReLU()
      (conv2): Conv_BN(
        (conv): Conv2d(256, 256, kernel_size=(3, 3), stride=(2, 2), padding=(1, 1), groups=256, bias=False)
        (bn): BatchNorm2d(256, eps=1e-05, momentum=0.1, affine=True, track_running_stats=True)
      )
      (se): SqueezeExcite(
        (ap): AdaptiveAvgPool2d(output_size=(1, 1))
        (fc1): Conv2d(256, 64, kernel_size=(1, 1), stride=(1, 1))
        (act1): ReLU()
        (fc2): Conv2d(64, 256, kernel_size=(1, 1), stride=(1, 1))
        (act2): Sigmoid()
      )
      (conv3): Conv_BN(
        (conv): Conv2d(256, 128, kernel_size=(1, 1), stride=(1, 1), bias=False)
        (bn): BatchNorm2d(128, eps=1e-05, momentum=0.1, affine=True, track_running_stats=True)
      )
    )
  )
  (subs2): SubSamplingBlock(
    (dwconv): InvertedResidualBlock(
      (conv1): Conv_BN(
        (conv): Conv2d(128, 512, kernel_size=(1, 1), stride=(1, 1), bias=False)
        (bn): BatchNorm2d(512, eps=1e-05, momentum=0.1, affine=True, track_running_stats=True)
      )
      (act1): ReLU()
      (conv2): Conv_BN(
        (conv): Conv2d(512, 512, kernel_size=(3, 3), stride=(2, 2), padding=(1, 1), groups=512, bias=False)
        (bn): BatchNorm2d(512, eps=1e-05, momentum=0.1, affine=True, track_running_stats=True)
      )
      (se): SqueezeExcite(
        (ap): AdaptiveAvgPool2d(output_size=(1, 1))
        (fc1): Conv2d(512, 128, kernel_size=(1, 1), stride=(1, 1))
        (act1): ReLU()
        (fc2): Conv2d(128, 512, kernel_size=(1, 1), stride=(1, 1))
        (act2): Sigmoid()
      )
      (conv3): Conv_BN(
        (conv): Conv2d(512, 192, kernel_size=(1, 1), stride=(1, 1), bias=False)
        (bn): BatchNorm2d(192, eps=1e-05, momentum=0.1, affine=True, track_running_stats=True)
      )
    )
  )
  (output): OutputLayer(
    (pool): AdaptiveAvgPool2d(output_size=(1, 1))
    (fc): BN_Linear(
      (bn): BatchNorm1d(192, eps=1e-05, momentum=0.1, affine=True, track_running_stats=True)
      (linear): Linear(in_features=192, out_features=100, bias=True)
    )
  )
)MyEfficientViT(
  (patch_emb): OverlapPatchEmbedding(
    (proj): Sequential(
      (0): Conv_BN(
        (conv): Conv2d(3, 8, kernel_size=(3, 3), stride=(2, 2), padding=(1, 1), bias=False)
        (bn): BatchNorm2d(8, eps=1e-05, momentum=0.1, affine=True, track_running_stats=True)
      )
      (1): ReLU()
      (2): Conv_BN(
        (conv): Conv2d(8, 16, kernel_size=(3, 3), stride=(2, 2), padding=(1, 1), bias=False)
        (bn): BatchNorm2d(16, eps=1e-05, momentum=0.1, affine=True, track_running_stats=True)
      )
      (3): ReLU()
      (4): Conv_BN(
        (conv): Conv2d(16, 32, kernel_size=(3, 3), stride=(2, 2), padding=(1, 1), bias=False)
        (bn): BatchNorm2d(32, eps=1e-05, momentum=0.1, affine=True, track_running_stats=True)
      )
      (5): ReLU()
      (6): Conv_BN(
        (conv): Conv2d(32, 64, kernel_size=(3, 3), stride=(2, 2), padding=(1, 1), bias=False)
        (bn): BatchNorm2d(64, eps=1e-05, momentum=0.1, affine=True, track_running_stats=True)
      )
      (7): ReLU()
    )
  )
  (evit1): Sequential(
    (evit1_1): EfficientVitBlock(
      (att): LocalWindowAttention(
        (attn): CascadedGroupAttention(
          (p): Conv_BN(
            (conv): Conv2d(64, 64, kernel_size=(1, 1), stride=(1, 1), bias=False)
            (bn): BatchNorm2d(64, eps=1e-05, momentum=0.1, affine=True, track_running_stats=True)
          )
          (act): ReLU()
        )
      )
    )
  )
  (evit2): Sequential(
    (evit2_1): EfficientVitBlock(
      (att): LocalWindowAttention(
        (attn): CascadedGroupAttention(
          (p): Conv_BN(
            (conv): Conv2d(128, 128, kernel_size=(1, 1), stride=(1, 1), bias=False)
            (bn): BatchNorm2d(128, eps=1e-05, momentum=0.1, affine=True, track_running_stats=True)
          )
          (act): ReLU()
        )
      )
    )
    (evit2_2): EfficientVitBlock(
      (att): LocalWindowAttention(
        (attn): CascadedGroupAttention(
          (p): Conv_BN(
            (conv): Conv2d(128, 128, kernel_size=(1, 1), stride=(1, 1), bias=False)
            (bn): BatchNorm2d(128, eps=1e-05, momentum=0.1, affine=True, track_running_stats=True)
          )
          (act): ReLU()
        )
      )
    )
  )
  (evit3): Sequential(
    (evit2_1): EfficientVitBlock(
      (att): LocalWindowAttention(
        (attn): CascadedGroupAttention(
          (p): Conv_BN(
            (conv): Conv2d(192, 192, kernel_size=(1, 1), stride=(1, 1), bias=False)
            (bn): BatchNorm2d(192, eps=1e-05, momentum=0.1, affine=True, track_running_stats=True)
          )
          (act): ReLU()
        )
      )
    )
    (evit2_2): EfficientVitBlock(
      (att): LocalWindowAttention(
        (attn): CascadedGroupAttention(
          (p): Conv_BN(
            (conv): Conv2d(192, 192, kernel_size=(1, 1), stride=(1, 1), bias=False)
            (bn): BatchNorm2d(192, eps=1e-05, momentum=0.1, affine=True, track_running_stats=True)
          )
          (act): ReLU()
        )
      )
    )
    (evit2_3): EfficientVitBlock(
      (att): LocalWindowAttention(
        (attn): CascadedGroupAttention(
          (p): Conv_BN(
            (conv): Conv2d(192, 192, kernel_size=(1, 1), stride=(1, 1), bias=False)
            (bn): BatchNorm2d(192, eps=1e-05, momentum=0.1, affine=True, track_running_stats=True)
          )
          (act): ReLU()
        )
      )
    )
  )
  (subs1): SubSamplingBlock(
    (dwconv): InvertedResidualBlock(
      (conv1): Conv_BN(
        (conv): Conv2d(64, 256, kernel_size=(1, 1), stride=(1, 1), bias=False)
        (bn): BatchNorm2d(256, eps=1e-05, momentum=0.1, affine=True, track_running_stats=True)
      )
      (act1): ReLU()
      (conv2): Conv_BN(
        (conv): Conv2d(256, 256, kernel_size=(3, 3), stride=(2, 2), padding=(1, 1), groups=256, bias=False)
        (bn): BatchNorm2d(256, eps=1e-05, momentum=0.1, affine=True, track_running_stats=True)
      )
      (se): SqueezeExcite(
        (ap): AdaptiveAvgPool2d(output_size=(1, 1))
        (fc1): Conv2d(256, 64, kernel_size=(1, 1), stride=(1, 1))
        (act1): ReLU()
        (fc2): Conv2d(64, 256, kernel_size=(1, 1), stride=(1, 1))
        (act2): Sigmoid()
      )
      (conv3): Conv_BN(
        (conv): Conv2d(256, 128, kernel_size=(1, 1), stride=(1, 1), bias=False)
        (bn): BatchNorm2d(128, eps=1e-05, momentum=0.1, affine=True, track_running_stats=True)
      )
    )
  )
  (subs2): SubSamplingBlock(
    (dwconv): InvertedResidualBlock(
      (conv1): Conv_BN(
        (conv): Conv2d(128, 512, kernel_size=(1, 1), stride=(1, 1), bias=False)
        (bn): BatchNorm2d(512, eps=1e-05, momentum=0.1, affine=True, track_running_stats=True)
      )
      (act1): ReLU()
      (conv2): Conv_BN(
        (conv): Conv2d(512, 512, kernel_size=(3, 3), stride=(2, 2), padding=(1, 1), groups=512, bias=False)
        (bn): BatchNorm2d(512, eps=1e-05, momentum=0.1, affine=True, track_running_stats=True)
      )
      (se): SqueezeExcite(
        (ap): AdaptiveAvgPool2d(output_size=(1, 1))
        (fc1): Conv2d(512, 128, kernel_size=(1, 1), stride=(1, 1))
        (act1): ReLU()
        (fc2): Conv2d(128, 512, kernel_size=(1, 1), stride=(1, 1))
        (act2): Sigmoid()
      )
      (conv3): Conv_BN(
        (conv): Conv2d(512, 192, kernel_size=(1, 1), stride=(1, 1), bias=False)
        (bn): BatchNorm2d(192, eps=1e-05, momentum=0.1, affine=True, track_running_stats=True)
      )
    )
  )
  (output): OutputLayer(
    (pool): AdaptiveAvgPool2d(output_size=(1, 1))
    (fc): BN_Linear(
      (bn): BatchNorm1d(192, eps=1e-05, momentum=0.1, affine=True, track_running_stats=True)
      (linear): Linear(in_features=192, out_features=100, bias=True)
    )
  )
)MyEfficientViT(
  (patch_emb): OverlapPatchEmbedding(
    (proj): Sequential(
      (0): Conv_BN(
        (conv): Conv2d(3, 8, kernel_size=(3, 3), stride=(2, 2), padding=(1, 1), bias=False)
        (bn): BatchNorm2d(8, eps=1e-05, momentum=0.1, affine=True, track_running_stats=True)
      )
      (1): ReLU()
      (2): Conv_BN(
        (conv): Conv2d(8, 16, kernel_size=(3, 3), stride=(2, 2), padding=(1, 1), bias=False)
        (bn): BatchNorm2d(16, eps=1e-05, momentum=0.1, affine=True, track_running_stats=True)
      )
      (3): ReLU()
      (4): Conv_BN(
        (conv): Conv2d(16, 32, kernel_size=(3, 3), stride=(2, 2), padding=(1, 1), bias=False)
        (bn): BatchNorm2d(32, eps=1e-05, momentum=0.1, affine=True, track_running_stats=True)
      )
      (5): ReLU()
      (6): Conv_BN(
        (conv): Conv2d(32, 64, kernel_size=(3, 3), stride=(2, 2), padding=(1, 1), bias=False)
        (bn): BatchNorm2d(64, eps=1e-05, momentum=0.1, affine=True, track_running_stats=True)
      )
      (7): ReLU()
    )
  )
  (evit1): Sequential(
    (evit1_1): EfficientVitBlock(
      (att): LocalWindowAttention(
        (attn): CascadedGroupAttention(
          (p): Conv_BN(
            (conv): Conv2d(64, 64, kernel_size=(1, 1), stride=(1, 1), bias=False)
            (bn): BatchNorm2d(64, eps=1e-05, momentum=0.1, affine=True, track_running_stats=True)
          )
          (act): ReLU()
        )
      )
    )
  )
  (evit2): Sequential(
    (evit2_1): EfficientVitBlock(
      (att): LocalWindowAttention(
        (attn): CascadedGroupAttention(
          (p): Conv_BN(
            (conv): Conv2d(128, 128, kernel_size=(1, 1), stride=(1, 1), bias=False)
            (bn): BatchNorm2d(128, eps=1e-05, momentum=0.1, affine=True, track_running_stats=True)
          )
          (act): ReLU()
        )
      )
    )
    (evit2_2): EfficientVitBlock(
      (att): LocalWindowAttention(
        (attn): CascadedGroupAttention(
          (p): Conv_BN(
            (conv): Conv2d(128, 128, kernel_size=(1, 1), stride=(1, 1), bias=False)
            (bn): BatchNorm2d(128, eps=1e-05, momentum=0.1, affine=True, track_running_stats=True)
          )
          (act): ReLU()
        )
      )
    )
  )
  (evit3): Sequential(
    (evit2_1): EfficientVitBlock(
      (att): LocalWindowAttention(
        (attn): CascadedGroupAttention(
          (p): Conv_BN(
            (conv): Conv2d(192, 192, kernel_size=(1, 1), stride=(1, 1), bias=False)
            (bn): BatchNorm2d(192, eps=1e-05, momentum=0.1, affine=True, track_running_stats=True)
          )
          (act): ReLU()
        )
      )
    )
    (evit2_2): EfficientVitBlock(
      (att): LocalWindowAttention(
        (attn): CascadedGroupAttention(
          (p): Conv_BN(
            (conv): Conv2d(192, 192, kernel_size=(1, 1), stride=(1, 1), bias=False)
            (bn): BatchNorm2d(192, eps=1e-05, momentum=0.1, affine=True, track_running_stats=True)
          )
          (act): ReLU()
        )
      )
    )
    (evit2_3): EfficientVitBlock(
      (att): LocalWindowAttention(
        (attn): CascadedGroupAttention(
          (p): Conv_BN(
            (conv): Conv2d(192, 192, kernel_size=(1, 1), stride=(1, 1), bias=False)
            (bn): BatchNorm2d(192, eps=1e-05, momentum=0.1, affine=True, track_running_stats=True)
          )
          (act): ReLU()
        )
      )
    )
  )
  (subs1): SubSamplingBlock(
    (dwconv): InvertedResidualBlock(
      (conv1): Conv_BN(
        (conv): Conv2d(64, 256, kernel_size=(1, 1), stride=(1, 1), bias=False)
        (bn): BatchNorm2d(256, eps=1e-05, momentum=0.1, affine=True, track_running_stats=True)
      )
      (act1): ReLU()
      (conv2): Conv_BN(
        (conv): Conv2d(256, 256, kernel_size=(3, 3), stride=(2, 2), padding=(1, 1), groups=256, bias=False)
        (bn): BatchNorm2d(256, eps=1e-05, momentum=0.1, affine=True, track_running_stats=True)
      )
      (se): SqueezeExcite(
        (ap): AdaptiveAvgPool2d(output_size=(1, 1))
        (fc1): Conv2d(256, 64, kernel_size=(1, 1), stride=(1, 1))
        (act1): ReLU()
        (fc2): Conv2d(64, 256, kernel_size=(1, 1), stride=(1, 1))
        (act2): Sigmoid()
      )
      (conv3): Conv_BN(
        (conv): Conv2d(256, 128, kernel_size=(1, 1), stride=(1, 1), bias=False)
        (bn): BatchNorm2d(128, eps=1e-05, momentum=0.1, affine=True, track_running_stats=True)
      )
    )
  )
  (subs2): SubSamplingBlock(
    (dwconv): InvertedResidualBlock(
      (conv1): Conv_BN(
        (conv): Conv2d(128, 512, kernel_size=(1, 1), stride=(1, 1), bias=False)
        (bn): BatchNorm2d(512, eps=1e-05, momentum=0.1, affine=True, track_running_stats=True)
      )
      (act1): ReLU()
      (conv2): Conv_BN(
        (conv): Conv2d(512, 512, kernel_size=(3, 3), stride=(2, 2), padding=(1, 1), groups=512, bias=False)
        (bn): BatchNorm2d(512, eps=1e-05, momentum=0.1, affine=True, track_running_stats=True)
      )
      (se): SqueezeExcite(
        (ap): AdaptiveAvgPool2d(output_size=(1, 1))
        (fc1): Conv2d(512, 128, kernel_size=(1, 1), stride=(1, 1))
        (act1): ReLU()
        (fc2): Conv2d(128, 512, kernel_size=(1, 1), stride=(1, 1))
        (act2): Sigmoid()
      )
      (conv3): Conv_BN(
        (conv): Conv2d(512, 192, kernel_size=(1, 1), stride=(1, 1), bias=False)
        (bn): BatchNorm2d(192, eps=1e-05, momentum=0.1, affine=True, track_running_stats=True)
      )
    )
  )
  (output): OutputLayer(
    (pool): AdaptiveAvgPool2d(output_size=(1, 1))
    (fc): BN_Linear(
      (bn): BatchNorm1d(192, eps=1e-05, momentum=0.1, affine=True, track_running_stats=True)
      (linear): Linear(in_features=192, out_features=100, bias=True)
    )
  )
)MyEfficientViT(
  (patch_emb): OverlapPatchEmbedding(
    (proj): Sequential(
      (0): Conv_BN(
        (conv): Conv2d(3, 8, kernel_size=(3, 3), stride=(2, 2), padding=(1, 1), bias=False)
        (bn): BatchNorm2d(8, eps=1e-05, momentum=0.1, affine=True, track_running_stats=True)
      )
      (1): ReLU()
      (2): Conv_BN(
        (conv): Conv2d(8, 16, kernel_size=(3, 3), stride=(2, 2), padding=(1, 1), bias=False)
        (bn): BatchNorm2d(16, eps=1e-05, momentum=0.1, affine=True, track_running_stats=True)
      )
      (3): ReLU()
      (4): Conv_BN(
        (conv): Conv2d(16, 32, kernel_size=(3, 3), stride=(2, 2), padding=(1, 1), bias=False)
        (bn): BatchNorm2d(32, eps=1e-05, momentum=0.1, affine=True, track_running_stats=True)
      )
      (5): ReLU()
      (6): Conv_BN(
        (conv): Conv2d(32, 64, kernel_size=(3, 3), stride=(2, 2), padding=(1, 1), bias=False)
        (bn): BatchNorm2d(64, eps=1e-05, momentum=0.1, affine=True, track_running_stats=True)
      )
      (7): ReLU()
    )
  )
  (evit1): Sequential(
    (evit1_1): EfficientVitBlock(
      (att): LocalWindowAttention(
        (attn): CascadedGroupAttention(
          (p): Conv_BN(
            (conv): Conv2d(64, 64, kernel_size=(1, 1), stride=(1, 1), bias=False)
            (bn): BatchNorm2d(64, eps=1e-05, momentum=0.1, affine=True, track_running_stats=True)
          )
          (act): ReLU()
        )
      )
    )
  )
  (evit2): Sequential(
    (evit2_1): EfficientVitBlock(
      (att): LocalWindowAttention(
        (attn): CascadedGroupAttention(
          (p): Conv_BN(
            (conv): Conv2d(128, 128, kernel_size=(1, 1), stride=(1, 1), bias=False)
            (bn): BatchNorm2d(128, eps=1e-05, momentum=0.1, affine=True, track_running_stats=True)
          )
          (act): ReLU()
        )
      )
    )
    (evit2_2): EfficientVitBlock(
      (att): LocalWindowAttention(
        (attn): CascadedGroupAttention(
          (p): Conv_BN(
            (conv): Conv2d(128, 128, kernel_size=(1, 1), stride=(1, 1), bias=False)
            (bn): BatchNorm2d(128, eps=1e-05, momentum=0.1, affine=True, track_running_stats=True)
          )
          (act): ReLU()
        )
      )
    )
  )
  (evit3): Sequential(
    (evit2_1): EfficientVitBlock(
      (att): LocalWindowAttention(
        (attn): CascadedGroupAttention(
          (p): Conv_BN(
            (conv): Conv2d(192, 192, kernel_size=(1, 1), stride=(1, 1), bias=False)
            (bn): BatchNorm2d(192, eps=1e-05, momentum=0.1, affine=True, track_running_stats=True)
          )
          (act): ReLU()
        )
      )
    )
    (evit2_2): EfficientVitBlock(
      (att): LocalWindowAttention(
        (attn): CascadedGroupAttention(
          (p): Conv_BN(
            (conv): Conv2d(192, 192, kernel_size=(1, 1), stride=(1, 1), bias=False)
            (bn): BatchNorm2d(192, eps=1e-05, momentum=0.1, affine=True, track_running_stats=True)
          )
          (act): ReLU()
        )
      )
    )
    (evit2_3): EfficientVitBlock(
      (att): LocalWindowAttention(
        (attn): CascadedGroupAttention(
          (p): Conv_BN(
            (conv): Conv2d(192, 192, kernel_size=(1, 1), stride=(1, 1), bias=False)
            (bn): BatchNorm2d(192, eps=1e-05, momentum=0.1, affine=True, track_running_stats=True)
          )
          (act): ReLU()
        )
      )
    )
  )
  (subs1): SubSamplingBlock(
    (dwconv): InvertedResidualBlock(
      (conv1): Conv_BN(
        (conv): Conv2d(64, 256, kernel_size=(1, 1), stride=(1, 1), bias=False)
        (bn): BatchNorm2d(256, eps=1e-05, momentum=0.1, affine=True, track_running_stats=True)
      )
      (act1): ReLU()
      (conv2): Conv_BN(
        (conv): Conv2d(256, 256, kernel_size=(3, 3), stride=(2, 2), padding=(1, 1), groups=256, bias=False)
        (bn): BatchNorm2d(256, eps=1e-05, momentum=0.1, affine=True, track_running_stats=True)
      )
      (se): SqueezeExcite(
        (ap): AdaptiveAvgPool2d(output_size=(1, 1))
        (fc1): Conv2d(256, 64, kernel_size=(1, 1), stride=(1, 1))
        (act1): ReLU()
        (fc2): Conv2d(64, 256, kernel_size=(1, 1), stride=(1, 1))
        (act2): Sigmoid()
      )
      (conv3): Conv_BN(
        (conv): Conv2d(256, 128, kernel_size=(1, 1), stride=(1, 1), bias=False)
        (bn): BatchNorm2d(128, eps=1e-05, momentum=0.1, affine=True, track_running_stats=True)
      )
    )
  )
  (subs2): SubSamplingBlock(
    (dwconv): InvertedResidualBlock(
      (conv1): Conv_BN(
        (conv): Conv2d(128, 512, kernel_size=(1, 1), stride=(1, 1), bias=False)
        (bn): BatchNorm2d(512, eps=1e-05, momentum=0.1, affine=True, track_running_stats=True)
      )
      (act1): ReLU()
      (conv2): Conv_BN(
        (conv): Conv2d(512, 512, kernel_size=(3, 3), stride=(2, 2), padding=(1, 1), groups=512, bias=False)
        (bn): BatchNorm2d(512, eps=1e-05, momentum=0.1, affine=True, track_running_stats=True)
      )
      (se): SqueezeExcite(
        (ap): AdaptiveAvgPool2d(output_size=(1, 1))
        (fc1): Conv2d(512, 128, kernel_size=(1, 1), stride=(1, 1))
        (act1): ReLU()
        (fc2): Conv2d(128, 512, kernel_size=(1, 1), stride=(1, 1))
        (act2): Sigmoid()
      )
      (conv3): Conv_BN(
        (conv): Conv2d(512, 192, kernel_size=(1, 1), stride=(1, 1), bias=False)
        (bn): BatchNorm2d(192, eps=1e-05, momentum=0.1, affine=True, track_running_stats=True)
      )
    )
  )
  (output): OutputLayer(
    (pool): AdaptiveAvgPool2d(output_size=(1, 1))
    (fc): BN_Linear(
      (bn): BatchNorm1d(192, eps=1e-05, momentum=0.1, affine=True, track_running_stats=True)
      (linear): Linear(in_features=192, out_features=100, bias=True)
    )
  )
)MyEfficientViT(
  (patch_emb): OverlapPatchEmbedding(
    (proj): Sequential(
      (0): Conv_BN(
        (conv): Conv2d(3, 8, kernel_size=(3, 3), stride=(2, 2), padding=(1, 1), bias=False)
        (bn): BatchNorm2d(8, eps=1e-05, momentum=0.1, affine=True, track_running_stats=True)
      )
      (1): ReLU()
      (2): Conv_BN(
        (conv): Conv2d(8, 16, kernel_size=(3, 3), stride=(2, 2), padding=(1, 1), bias=False)
        (bn): BatchNorm2d(16, eps=1e-05, momentum=0.1, affine=True, track_running_stats=True)
      )
      (3): ReLU()
      (4): Conv_BN(
        (conv): Conv2d(16, 32, kernel_size=(3, 3), stride=(2, 2), padding=(1, 1), bias=False)
        (bn): BatchNorm2d(32, eps=1e-05, momentum=0.1, affine=True, track_running_stats=True)
      )
      (5): ReLU()
      (6): Conv_BN(
        (conv): Conv2d(32, 64, kernel_size=(3, 3), stride=(2, 2), padding=(1, 1), bias=False)
        (bn): BatchNorm2d(64, eps=1e-05, momentum=0.1, affine=True, track_running_stats=True)
      )
      (7): ReLU()
    )
  )
  (evit1): Sequential(
    (evit1_1): EfficientVitBlock(
      (att): LocalWindowAttention(
        (attn): CascadedGroupAttention(
          (p): Conv_BN(
            (conv): Conv2d(64, 64, kernel_size=(1, 1), stride=(1, 1), bias=False)
            (bn): BatchNorm2d(64, eps=1e-05, momentum=0.1, affine=True, track_running_stats=True)
          )
          (act): ReLU()
        )
      )
    )
  )
  (evit2): Sequential(
    (evit2_1): EfficientVitBlock(
      (att): LocalWindowAttention(
        (attn): CascadedGroupAttention(
          (p): Conv_BN(
            (conv): Conv2d(128, 128, kernel_size=(1, 1), stride=(1, 1), bias=False)
            (bn): BatchNorm2d(128, eps=1e-05, momentum=0.1, affine=True, track_running_stats=True)
          )
          (act): ReLU()
        )
      )
    )
    (evit2_2): EfficientVitBlock(
      (att): LocalWindowAttention(
        (attn): CascadedGroupAttention(
          (p): Conv_BN(
            (conv): Conv2d(128, 128, kernel_size=(1, 1), stride=(1, 1), bias=False)
            (bn): BatchNorm2d(128, eps=1e-05, momentum=0.1, affine=True, track_running_stats=True)
          )
          (act): ReLU()
        )
      )
    )
  )
  (evit3): Sequential(
    (evit2_1): EfficientVitBlock(
      (att): LocalWindowAttention(
        (attn): CascadedGroupAttention(
          (p): Conv_BN(
            (conv): Conv2d(192, 192, kernel_size=(1, 1), stride=(1, 1), bias=False)
            (bn): BatchNorm2d(192, eps=1e-05, momentum=0.1, affine=True, track_running_stats=True)
          )
          (act): ReLU()
        )
      )
    )
    (evit2_2): EfficientVitBlock(
      (att): LocalWindowAttention(
        (attn): CascadedGroupAttention(
          (p): Conv_BN(
            (conv): Conv2d(192, 192, kernel_size=(1, 1), stride=(1, 1), bias=False)
            (bn): BatchNorm2d(192, eps=1e-05, momentum=0.1, affine=True, track_running_stats=True)
          )
          (act): ReLU()
        )
      )
    )
    (evit2_3): EfficientVitBlock(
      (att): LocalWindowAttention(
        (attn): CascadedGroupAttention(
          (p): Conv_BN(
            (conv): Conv2d(192, 192, kernel_size=(1, 1), stride=(1, 1), bias=False)
            (bn): BatchNorm2d(192, eps=1e-05, momentum=0.1, affine=True, track_running_stats=True)
          )
          (act): ReLU()
        )
      )
    )
  )
  (subs1): SubSamplingBlock(
    (dwconv): InvertedResidualBlock(
      (conv1): Conv_BN(
        (conv): Conv2d(64, 256, kernel_size=(1, 1), stride=(1, 1), bias=False)
        (bn): BatchNorm2d(256, eps=1e-05, momentum=0.1, affine=True, track_running_stats=True)
      )
      (act1): ReLU()
      (conv2): Conv_BN(
        (conv): Conv2d(256, 256, kernel_size=(3, 3), stride=(2, 2), padding=(1, 1), groups=256, bias=False)
        (bn): BatchNorm2d(256, eps=1e-05, momentum=0.1, affine=True, track_running_stats=True)
      )
      (se): SqueezeExcite(
        (ap): AdaptiveAvgPool2d(output_size=(1, 1))
        (fc1): Conv2d(256, 64, kernel_size=(1, 1), stride=(1, 1))
        (act1): ReLU()
        (fc2): Conv2d(64, 256, kernel_size=(1, 1), stride=(1, 1))
        (act2): Sigmoid()
      )
      (conv3): Conv_BN(
        (conv): Conv2d(256, 128, kernel_size=(1, 1), stride=(1, 1), bias=False)
        (bn): BatchNorm2d(128, eps=1e-05, momentum=0.1, affine=True, track_running_stats=True)
      )
    )
  )
  (subs2): SubSamplingBlock(
    (dwconv): InvertedResidualBlock(
      (conv1): Conv_BN(
        (conv): Conv2d(128, 512, kernel_size=(1, 1), stride=(1, 1), bias=False)
        (bn): BatchNorm2d(512, eps=1e-05, momentum=0.1, affine=True, track_running_stats=True)
      )
      (act1): ReLU()
      (conv2): Conv_BN(
        (conv): Conv2d(512, 512, kernel_size=(3, 3), stride=(2, 2), padding=(1, 1), groups=512, bias=False)
        (bn): BatchNorm2d(512, eps=1e-05, momentum=0.1, affine=True, track_running_stats=True)
      )
      (se): SqueezeExcite(
        (ap): AdaptiveAvgPool2d(output_size=(1, 1))
        (fc1): Conv2d(512, 128, kernel_size=(1, 1), stride=(1, 1))
        (act1): ReLU()
        (fc2): Conv2d(128, 512, kernel_size=(1, 1), stride=(1, 1))
        (act2): Sigmoid()
      )
      (conv3): Conv_BN(
        (conv): Conv2d(512, 192, kernel_size=(1, 1), stride=(1, 1), bias=False)
        (bn): BatchNorm2d(192, eps=1e-05, momentum=0.1, affine=True, track_running_stats=True)
      )
    )
  )
  (output): OutputLayer(
    (pool): AdaptiveAvgPool2d(output_size=(1, 1))
    (fc): BN_Linear(
      (bn): BatchNorm1d(192, eps=1e-05, momentum=0.1, affine=True, track_running_stats=True)
      (linear): Linear(in_features=192, out_features=100, bias=True)
    )
  )
)EfficientViT(
  (patch_embed): Sequential(
    (0): Conv2d_BN(
      (c): Conv2d(3, 8, kernel_size=(3, 3), stride=(2, 2), padding=(1, 1), bias=False)
      (bn): BatchNorm2d(8, eps=1e-05, momentum=0.1, affine=True, track_running_stats=True)
    )
    (1): ReLU()
    (2): Conv2d_BN(
      (c): Conv2d(8, 16, kernel_size=(3, 3), stride=(2, 2), padding=(1, 1), bias=False)
      (bn): BatchNorm2d(16, eps=1e-05, momentum=0.1, affine=True, track_running_stats=True)
    )
    (3): ReLU()
    (4): Conv2d_BN(
      (c): Conv2d(16, 32, kernel_size=(3, 3), stride=(2, 2), padding=(1, 1), bias=False)
      (bn): BatchNorm2d(32, eps=1e-05, momentum=0.1, affine=True, track_running_stats=True)
    )
    (5): ReLU()
    (6): Conv2d_BN(
      (c): Conv2d(32, 64, kernel_size=(3, 3), stride=(2, 2), padding=(1, 1), bias=False)
      (bn): BatchNorm2d(64, eps=1e-05, momentum=0.1, affine=True, track_running_stats=True)
    )
  )
  (blocks1): Sequential(
    (0): EfficientViTBlock(
      (dw0): Residual(
        (m): Conv2d_BN(
          (c): Conv2d(64, 64, kernel_size=(3, 3), stride=(1, 1), padding=(1, 1), groups=64, bias=False)
          (bn): BatchNorm2d(64, eps=1e-05, momentum=0.1, affine=True, track_running_stats=True)
        )
      )
      (ffn0): Residual(
        (m): FFN(
          (pw1): Conv2d_BN(
            (c): Conv2d(64, 128, kernel_size=(1, 1), stride=(1, 1), bias=False)
            (bn): BatchNorm2d(128, eps=1e-05, momentum=0.1, affine=True, track_running_stats=True)
          )
          (act): ReLU()
          (pw2): Conv2d_BN(
            (c): Conv2d(128, 64, kernel_size=(1, 1), stride=(1, 1), bias=False)
            (bn): BatchNorm2d(64, eps=1e-05, momentum=0.1, affine=True, track_running_stats=True)
          )
        )
      )
      (mixer): Residual(
        (m): LocalWindowAttention(
          (attn): CascadedGroupAttention(
            (qkvs): ModuleList(
              (0-3): 4 x Conv2d_BN(
                (c): Conv2d(16, 48, kernel_size=(1, 1), stride=(1, 1), bias=False)
                (bn): BatchNorm2d(48, eps=1e-05, momentum=0.1, affine=True, track_running_stats=True)
              )
            )
            (dws): ModuleList(
              (0-3): 4 x Conv2d_BN(
                (c): Conv2d(16, 16, kernel_size=(5, 5), stride=(1, 1), padding=(2, 2), groups=16, bias=False)
                (bn): BatchNorm2d(16, eps=1e-05, momentum=0.1, affine=True, track_running_stats=True)
              )
            )
            (proj): Sequential(
              (0): ReLU()
              (1): Conv2d_BN(
                (c): Conv2d(64, 64, kernel_size=(1, 1), stride=(1, 1), bias=False)
                (bn): BatchNorm2d(64, eps=1e-05, momentum=0.1, affine=True, track_running_stats=True)
              )
            )
          )
        )
      )
      (dw1): Residual(
        (m): Conv2d_BN(
          (c): Conv2d(64, 64, kernel_size=(3, 3), stride=(1, 1), padding=(1, 1), groups=64, bias=False)
          (bn): BatchNorm2d(64, eps=1e-05, momentum=0.1, affine=True, track_running_stats=True)
        )
      )
      (ffn1): Residual(
        (m): FFN(
          (pw1): Conv2d_BN(
            (c): Conv2d(64, 128, kernel_size=(1, 1), stride=(1, 1), bias=False)
            (bn): BatchNorm2d(128, eps=1e-05, momentum=0.1, affine=True, track_running_stats=True)
          )
          (act): ReLU()
          (pw2): Conv2d_BN(
            (c): Conv2d(128, 64, kernel_size=(1, 1), stride=(1, 1), bias=False)
            (bn): BatchNorm2d(64, eps=1e-05, momentum=0.1, affine=True, track_running_stats=True)
          )
        )
      )
    )
  )
  (blocks2): Sequential(
    (0): Sequential(
      (0): Residual(
        (m): Conv2d_BN(
          (c): Conv2d(64, 64, kernel_size=(3, 3), stride=(1, 1), padding=(1, 1), groups=64, bias=False)
          (bn): BatchNorm2d(64, eps=1e-05, momentum=0.1, affine=True, track_running_stats=True)
        )
      )
      (1): Residual(
        (m): FFN(
          (pw1): Conv2d_BN(
            (c): Conv2d(64, 128, kernel_size=(1, 1), stride=(1, 1), bias=False)
            (bn): BatchNorm2d(128, eps=1e-05, momentum=0.1, affine=True, track_running_stats=True)
          )
          (act): ReLU()
          (pw2): Conv2d_BN(
            (c): Conv2d(128, 64, kernel_size=(1, 1), stride=(1, 1), bias=False)
            (bn): BatchNorm2d(64, eps=1e-05, momentum=0.1, affine=True, track_running_stats=True)
          )
        )
      )
    )
    (1): PatchMerging(
      (conv1): Conv2d_BN(
        (c): Conv2d(64, 256, kernel_size=(1, 1), stride=(1, 1), bias=False)
        (bn): BatchNorm2d(256, eps=1e-05, momentum=0.1, affine=True, track_running_stats=True)
      )
      (act): ReLU()
      (conv2): Conv2d_BN(
        (c): Conv2d(256, 256, kernel_size=(3, 3), stride=(2, 2), padding=(1, 1), groups=256, bias=False)
        (bn): BatchNorm2d(256, eps=1e-05, momentum=0.1, affine=True, track_running_stats=True)
      )
      (se): SEModule(
        (fc1): Conv2d(256, 64, kernel_size=(1, 1), stride=(1, 1))
        (bn): Identity()
        (act): ReLU(inplace=True)
        (fc2): Conv2d(64, 256, kernel_size=(1, 1), stride=(1, 1))
        (gate): Sigmoid()
      )
      (conv3): Conv2d_BN(
        (c): Conv2d(256, 128, kernel_size=(1, 1), stride=(1, 1), bias=False)
        (bn): BatchNorm2d(128, eps=1e-05, momentum=0.1, affine=True, track_running_stats=True)
      )
    )
    (2): Sequential(
      (0): Residual(
        (m): Conv2d_BN(
          (c): Conv2d(128, 128, kernel_size=(3, 3), stride=(1, 1), padding=(1, 1), groups=128, bias=False)
          (bn): BatchNorm2d(128, eps=1e-05, momentum=0.1, affine=True, track_running_stats=True)
        )
      )
      (1): Residual(
        (m): FFN(
          (pw1): Conv2d_BN(
            (c): Conv2d(128, 256, kernel_size=(1, 1), stride=(1, 1), bias=False)
            (bn): BatchNorm2d(256, eps=1e-05, momentum=0.1, affine=True, track_running_stats=True)
          )
          (act): ReLU()
          (pw2): Conv2d_BN(
            (c): Conv2d(256, 128, kernel_size=(1, 1), stride=(1, 1), bias=False)
            (bn): BatchNorm2d(128, eps=1e-05, momentum=0.1, affine=True, track_running_stats=True)
          )
        )
      )
    )
    (3): EfficientViTBlock(
      (dw0): Residual(
        (m): Conv2d_BN(
          (c): Conv2d(128, 128, kernel_size=(3, 3), stride=(1, 1), padding=(1, 1), groups=128, bias=False)
          (bn): BatchNorm2d(128, eps=1e-05, momentum=0.1, affine=True, track_running_stats=True)
        )
      )
      (ffn0): Residual(
        (m): FFN(
          (pw1): Conv2d_BN(
            (c): Conv2d(128, 256, kernel_size=(1, 1), stride=(1, 1), bias=False)
            (bn): BatchNorm2d(256, eps=1e-05, momentum=0.1, affine=True, track_running_stats=True)
          )
          (act): ReLU()
          (pw2): Conv2d_BN(
            (c): Conv2d(256, 128, kernel_size=(1, 1), stride=(1, 1), bias=False)
            (bn): BatchNorm2d(128, eps=1e-05, momentum=0.1, affine=True, track_running_stats=True)
          )
        )
      )
      (mixer): Residual(
        (m): LocalWindowAttention(
          (attn): CascadedGroupAttention(
            (qkvs): ModuleList(
              (0-3): 4 x Conv2d_BN(
                (c): Conv2d(32, 64, kernel_size=(1, 1), stride=(1, 1), bias=False)
                (bn): BatchNorm2d(64, eps=1e-05, momentum=0.1, affine=True, track_running_stats=True)
              )
            )
            (dws): ModuleList(
              (0-3): 4 x Conv2d_BN(
                (c): Conv2d(16, 16, kernel_size=(5, 5), stride=(1, 1), padding=(2, 2), groups=16, bias=False)
                (bn): BatchNorm2d(16, eps=1e-05, momentum=0.1, affine=True, track_running_stats=True)
              )
            )
            (proj): Sequential(
              (0): ReLU()
              (1): Conv2d_BN(
                (c): Conv2d(128, 128, kernel_size=(1, 1), stride=(1, 1), bias=False)
                (bn): BatchNorm2d(128, eps=1e-05, momentum=0.1, affine=True, track_running_stats=True)
              )
            )
          )
        )
      )
      (dw1): Residual(
        (m): Conv2d_BN(
          (c): Conv2d(128, 128, kernel_size=(3, 3), stride=(1, 1), padding=(1, 1), groups=128, bias=False)
          (bn): BatchNorm2d(128, eps=1e-05, momentum=0.1, affine=True, track_running_stats=True)
        )
      )
      (ffn1): Residual(
        (m): FFN(
          (pw1): Conv2d_BN(
            (c): Conv2d(128, 256, kernel_size=(1, 1), stride=(1, 1), bias=False)
            (bn): BatchNorm2d(256, eps=1e-05, momentum=0.1, affine=True, track_running_stats=True)
          )
          (act): ReLU()
          (pw2): Conv2d_BN(
            (c): Conv2d(256, 128, kernel_size=(1, 1), stride=(1, 1), bias=False)
            (bn): BatchNorm2d(128, eps=1e-05, momentum=0.1, affine=True, track_running_stats=True)
          )
        )
      )
    )
    (4): EfficientViTBlock(
      (dw0): Residual(
        (m): Conv2d_BN(
          (c): Conv2d(128, 128, kernel_size=(3, 3), stride=(1, 1), padding=(1, 1), groups=128, bias=False)
          (bn): BatchNorm2d(128, eps=1e-05, momentum=0.1, affine=True, track_running_stats=True)
        )
      )
      (ffn0): Residual(
        (m): FFN(
          (pw1): Conv2d_BN(
            (c): Conv2d(128, 256, kernel_size=(1, 1), stride=(1, 1), bias=False)
            (bn): BatchNorm2d(256, eps=1e-05, momentum=0.1, affine=True, track_running_stats=True)
          )
          (act): ReLU()
          (pw2): Conv2d_BN(
            (c): Conv2d(256, 128, kernel_size=(1, 1), stride=(1, 1), bias=False)
            (bn): BatchNorm2d(128, eps=1e-05, momentum=0.1, affine=True, track_running_stats=True)
          )
        )
      )
      (mixer): Residual(
        (m): LocalWindowAttention(
          (attn): CascadedGroupAttention(
            (qkvs): ModuleList(
              (0-3): 4 x Conv2d_BN(
                (c): Conv2d(32, 64, kernel_size=(1, 1), stride=(1, 1), bias=False)
                (bn): BatchNorm2d(64, eps=1e-05, momentum=0.1, affine=True, track_running_stats=True)
              )
            )
            (dws): ModuleList(
              (0-3): 4 x Conv2d_BN(
                (c): Conv2d(16, 16, kernel_size=(5, 5), stride=(1, 1), padding=(2, 2), groups=16, bias=False)
                (bn): BatchNorm2d(16, eps=1e-05, momentum=0.1, affine=True, track_running_stats=True)
              )
            )
            (proj): Sequential(
              (0): ReLU()
              (1): Conv2d_BN(
                (c): Conv2d(128, 128, kernel_size=(1, 1), stride=(1, 1), bias=False)
                (bn): BatchNorm2d(128, eps=1e-05, momentum=0.1, affine=True, track_running_stats=True)
              )
            )
          )
        )
      )
      (dw1): Residual(
        (m): Conv2d_BN(
          (c): Conv2d(128, 128, kernel_size=(3, 3), stride=(1, 1), padding=(1, 1), groups=128, bias=False)
          (bn): BatchNorm2d(128, eps=1e-05, momentum=0.1, affine=True, track_running_stats=True)
        )
      )
      (ffn1): Residual(
        (m): FFN(
          (pw1): Conv2d_BN(
            (c): Conv2d(128, 256, kernel_size=(1, 1), stride=(1, 1), bias=False)
            (bn): BatchNorm2d(256, eps=1e-05, momentum=0.1, affine=True, track_running_stats=True)
          )
          (act): ReLU()
          (pw2): Conv2d_BN(
            (c): Conv2d(256, 128, kernel_size=(1, 1), stride=(1, 1), bias=False)
            (bn): BatchNorm2d(128, eps=1e-05, momentum=0.1, affine=True, track_running_stats=True)
          )
        )
      )
    )
  )
  (blocks3): Sequential(
    (0): Sequential(
      (0): Residual(
        (m): Conv2d_BN(
          (c): Conv2d(128, 128, kernel_size=(3, 3), stride=(1, 1), padding=(1, 1), groups=128, bias=False)
          (bn): BatchNorm2d(128, eps=1e-05, momentum=0.1, affine=True, track_running_stats=True)
        )
      )
      (1): Residual(
        (m): FFN(
          (pw1): Conv2d_BN(
            (c): Conv2d(128, 256, kernel_size=(1, 1), stride=(1, 1), bias=False)
            (bn): BatchNorm2d(256, eps=1e-05, momentum=0.1, affine=True, track_running_stats=True)
          )
          (act): ReLU()
          (pw2): Conv2d_BN(
            (c): Conv2d(256, 128, kernel_size=(1, 1), stride=(1, 1), bias=False)
            (bn): BatchNorm2d(128, eps=1e-05, momentum=0.1, affine=True, track_running_stats=True)
          )
        )
      )
    )
    (1): PatchMerging(
      (conv1): Conv2d_BN(
        (c): Conv2d(128, 512, kernel_size=(1, 1), stride=(1, 1), bias=False)
        (bn): BatchNorm2d(512, eps=1e-05, momentum=0.1, affine=True, track_running_stats=True)
      )
      (act): ReLU()
      (conv2): Conv2d_BN(
        (c): Conv2d(512, 512, kernel_size=(3, 3), stride=(2, 2), padding=(1, 1), groups=512, bias=False)
        (bn): BatchNorm2d(512, eps=1e-05, momentum=0.1, affine=True, track_running_stats=True)
      )
      (se): SEModule(
        (fc1): Conv2d(512, 128, kernel_size=(1, 1), stride=(1, 1))
        (bn): Identity()
        (act): ReLU(inplace=True)
        (fc2): Conv2d(128, 512, kernel_size=(1, 1), stride=(1, 1))
        (gate): Sigmoid()
      )
      (conv3): Conv2d_BN(
        (c): Conv2d(512, 192, kernel_size=(1, 1), stride=(1, 1), bias=False)
        (bn): BatchNorm2d(192, eps=1e-05, momentum=0.1, affine=True, track_running_stats=True)
      )
    )
    (2): Sequential(
      (0): Residual(
        (m): Conv2d_BN(
          (c): Conv2d(192, 192, kernel_size=(3, 3), stride=(1, 1), padding=(1, 1), groups=192, bias=False)
          (bn): BatchNorm2d(192, eps=1e-05, momentum=0.1, affine=True, track_running_stats=True)
        )
      )
      (1): Residual(
        (m): FFN(
          (pw1): Conv2d_BN(
            (c): Conv2d(192, 384, kernel_size=(1, 1), stride=(1, 1), bias=False)
            (bn): BatchNorm2d(384, eps=1e-05, momentum=0.1, affine=True, track_running_stats=True)
          )
          (act): ReLU()
          (pw2): Conv2d_BN(
            (c): Conv2d(384, 192, kernel_size=(1, 1), stride=(1, 1), bias=False)
            (bn): BatchNorm2d(192, eps=1e-05, momentum=0.1, affine=True, track_running_stats=True)
          )
        )
      )
    )
    (3): EfficientViTBlock(
      (dw0): Residual(
        (m): Conv2d_BN(
          (c): Conv2d(192, 192, kernel_size=(3, 3), stride=(1, 1), padding=(1, 1), groups=192, bias=False)
          (bn): BatchNorm2d(192, eps=1e-05, momentum=0.1, affine=True, track_running_stats=True)
        )
      )
      (ffn0): Residual(
        (m): FFN(
          (pw1): Conv2d_BN(
            (c): Conv2d(192, 384, kernel_size=(1, 1), stride=(1, 1), bias=False)
            (bn): BatchNorm2d(384, eps=1e-05, momentum=0.1, affine=True, track_running_stats=True)
          )
          (act): ReLU()
          (pw2): Conv2d_BN(
            (c): Conv2d(384, 192, kernel_size=(1, 1), stride=(1, 1), bias=False)
            (bn): BatchNorm2d(192, eps=1e-05, momentum=0.1, affine=True, track_running_stats=True)
          )
        )
      )
      (mixer): Residual(
        (m): LocalWindowAttention(
          (attn): CascadedGroupAttention(
            (qkvs): ModuleList(
              (0-3): 4 x Conv2d_BN(
                (c): Conv2d(48, 80, kernel_size=(1, 1), stride=(1, 1), bias=False)
                (bn): BatchNorm2d(80, eps=1e-05, momentum=0.1, affine=True, track_running_stats=True)
              )
            )
            (dws): ModuleList(
              (0-3): 4 x Conv2d_BN(
                (c): Conv2d(16, 16, kernel_size=(5, 5), stride=(1, 1), padding=(2, 2), groups=16, bias=False)
                (bn): BatchNorm2d(16, eps=1e-05, momentum=0.1, affine=True, track_running_stats=True)
              )
            )
            (proj): Sequential(
              (0): ReLU()
              (1): Conv2d_BN(
                (c): Conv2d(192, 192, kernel_size=(1, 1), stride=(1, 1), bias=False)
                (bn): BatchNorm2d(192, eps=1e-05, momentum=0.1, affine=True, track_running_stats=True)
              )
            )
          )
        )
      )
      (dw1): Residual(
        (m): Conv2d_BN(
          (c): Conv2d(192, 192, kernel_size=(3, 3), stride=(1, 1), padding=(1, 1), groups=192, bias=False)
          (bn): BatchNorm2d(192, eps=1e-05, momentum=0.1, affine=True, track_running_stats=True)
        )
      )
      (ffn1): Residual(
        (m): FFN(
          (pw1): Conv2d_BN(
            (c): Conv2d(192, 384, kernel_size=(1, 1), stride=(1, 1), bias=False)
            (bn): BatchNorm2d(384, eps=1e-05, momentum=0.1, affine=True, track_running_stats=True)
          )
          (act): ReLU()
          (pw2): Conv2d_BN(
            (c): Conv2d(384, 192, kernel_size=(1, 1), stride=(1, 1), bias=False)
            (bn): BatchNorm2d(192, eps=1e-05, momentum=0.1, affine=True, track_running_stats=True)
          )
        )
      )
    )
    (4): EfficientViTBlock(
      (dw0): Residual(
        (m): Conv2d_BN(
          (c): Conv2d(192, 192, kernel_size=(3, 3), stride=(1, 1), padding=(1, 1), groups=192, bias=False)
          (bn): BatchNorm2d(192, eps=1e-05, momentum=0.1, affine=True, track_running_stats=True)
        )
      )
      (ffn0): Residual(
        (m): FFN(
          (pw1): Conv2d_BN(
            (c): Conv2d(192, 384, kernel_size=(1, 1), stride=(1, 1), bias=False)
            (bn): BatchNorm2d(384, eps=1e-05, momentum=0.1, affine=True, track_running_stats=True)
          )
          (act): ReLU()
          (pw2): Conv2d_BN(
            (c): Conv2d(384, 192, kernel_size=(1, 1), stride=(1, 1), bias=False)
            (bn): BatchNorm2d(192, eps=1e-05, momentum=0.1, affine=True, track_running_stats=True)
          )
        )
      )
      (mixer): Residual(
        (m): LocalWindowAttention(
          (attn): CascadedGroupAttention(
            (qkvs): ModuleList(
              (0-3): 4 x Conv2d_BN(
                (c): Conv2d(48, 80, kernel_size=(1, 1), stride=(1, 1), bias=False)
                (bn): BatchNorm2d(80, eps=1e-05, momentum=0.1, affine=True, track_running_stats=True)
              )
            )
            (dws): ModuleList(
              (0-3): 4 x Conv2d_BN(
                (c): Conv2d(16, 16, kernel_size=(5, 5), stride=(1, 1), padding=(2, 2), groups=16, bias=False)
                (bn): BatchNorm2d(16, eps=1e-05, momentum=0.1, affine=True, track_running_stats=True)
              )
            )
            (proj): Sequential(
              (0): ReLU()
              (1): Conv2d_BN(
                (c): Conv2d(192, 192, kernel_size=(1, 1), stride=(1, 1), bias=False)
                (bn): BatchNorm2d(192, eps=1e-05, momentum=0.1, affine=True, track_running_stats=True)
              )
            )
          )
        )
      )
      (dw1): Residual(
        (m): Conv2d_BN(
          (c): Conv2d(192, 192, kernel_size=(3, 3), stride=(1, 1), padding=(1, 1), groups=192, bias=False)
          (bn): BatchNorm2d(192, eps=1e-05, momentum=0.1, affine=True, track_running_stats=True)
        )
      )
      (ffn1): Residual(
        (m): FFN(
          (pw1): Conv2d_BN(
            (c): Conv2d(192, 384, kernel_size=(1, 1), stride=(1, 1), bias=False)
            (bn): BatchNorm2d(384, eps=1e-05, momentum=0.1, affine=True, track_running_stats=True)
          )
          (act): ReLU()
          (pw2): Conv2d_BN(
            (c): Conv2d(384, 192, kernel_size=(1, 1), stride=(1, 1), bias=False)
            (bn): BatchNorm2d(192, eps=1e-05, momentum=0.1, affine=True, track_running_stats=True)
          )
        )
      )
    )
    (5): EfficientViTBlock(
      (dw0): Residual(
        (m): Conv2d_BN(
          (c): Conv2d(192, 192, kernel_size=(3, 3), stride=(1, 1), padding=(1, 1), groups=192, bias=False)
          (bn): BatchNorm2d(192, eps=1e-05, momentum=0.1, affine=True, track_running_stats=True)
        )
      )
      (ffn0): Residual(
        (m): FFN(
          (pw1): Conv2d_BN(
            (c): Conv2d(192, 384, kernel_size=(1, 1), stride=(1, 1), bias=False)
            (bn): BatchNorm2d(384, eps=1e-05, momentum=0.1, affine=True, track_running_stats=True)
          )
          (act): ReLU()
          (pw2): Conv2d_BN(
            (c): Conv2d(384, 192, kernel_size=(1, 1), stride=(1, 1), bias=False)
            (bn): BatchNorm2d(192, eps=1e-05, momentum=0.1, affine=True, track_running_stats=True)
          )
        )
      )
      (mixer): Residual(
        (m): LocalWindowAttention(
          (attn): CascadedGroupAttention(
            (qkvs): ModuleList(
              (0-3): 4 x Conv2d_BN(
                (c): Conv2d(48, 80, kernel_size=(1, 1), stride=(1, 1), bias=False)
                (bn): BatchNorm2d(80, eps=1e-05, momentum=0.1, affine=True, track_running_stats=True)
              )
            )
            (dws): ModuleList(
              (0-3): 4 x Conv2d_BN(
                (c): Conv2d(16, 16, kernel_size=(5, 5), stride=(1, 1), padding=(2, 2), groups=16, bias=False)
                (bn): BatchNorm2d(16, eps=1e-05, momentum=0.1, affine=True, track_running_stats=True)
              )
            )
            (proj): Sequential(
              (0): ReLU()
              (1): Conv2d_BN(
                (c): Conv2d(192, 192, kernel_size=(1, 1), stride=(1, 1), bias=False)
                (bn): BatchNorm2d(192, eps=1e-05, momentum=0.1, affine=True, track_running_stats=True)
              )
            )
          )
        )
      )
      (dw1): Residual(
        (m): Conv2d_BN(
          (c): Conv2d(192, 192, kernel_size=(3, 3), stride=(1, 1), padding=(1, 1), groups=192, bias=False)
          (bn): BatchNorm2d(192, eps=1e-05, momentum=0.1, affine=True, track_running_stats=True)
        )
      )
      (ffn1): Residual(
        (m): FFN(
          (pw1): Conv2d_BN(
            (c): Conv2d(192, 384, kernel_size=(1, 1), stride=(1, 1), bias=False)
            (bn): BatchNorm2d(384, eps=1e-05, momentum=0.1, affine=True, track_running_stats=True)
          )
          (act): ReLU()
          (pw2): Conv2d_BN(
            (c): Conv2d(384, 192, kernel_size=(1, 1), stride=(1, 1), bias=False)
            (bn): BatchNorm2d(192, eps=1e-05, momentum=0.1, affine=True, track_running_stats=True)
          )
        )
      )
    )
  )
  (head): BN_Linear(
    (bn): BatchNorm1d(192, eps=1e-05, momentum=0.1, affine=True, track_running_stats=True)
    (l): Linear(in_features=192, out_features=100, bias=True)
  )
)EfficientViT(
  (patch_embed): Sequential(
    (0): Conv2d_BN(
      (c): Conv2d(3, 8, kernel_size=(3, 3), stride=(2, 2), padding=(1, 1), bias=False)
      (bn): BatchNorm2d(8, eps=1e-05, momentum=0.1, affine=True, track_running_stats=True)
    )
    (1): ReLU()
    (2): Conv2d_BN(
      (c): Conv2d(8, 16, kernel_size=(3, 3), stride=(2, 2), padding=(1, 1), bias=False)
      (bn): BatchNorm2d(16, eps=1e-05, momentum=0.1, affine=True, track_running_stats=True)
    )
    (3): ReLU()
    (4): Conv2d_BN(
      (c): Conv2d(16, 32, kernel_size=(3, 3), stride=(2, 2), padding=(1, 1), bias=False)
      (bn): BatchNorm2d(32, eps=1e-05, momentum=0.1, affine=True, track_running_stats=True)
    )
    (5): ReLU()
    (6): Conv2d_BN(
      (c): Conv2d(32, 64, kernel_size=(3, 3), stride=(2, 2), padding=(1, 1), bias=False)
      (bn): BatchNorm2d(64, eps=1e-05, momentum=0.1, affine=True, track_running_stats=True)
    )
  )
  (blocks1): Sequential(
    (0): EfficientViTBlock(
      (dw0): Residual(
        (m): Conv2d_BN(
          (c): Conv2d(64, 64, kernel_size=(3, 3), stride=(1, 1), padding=(1, 1), groups=64, bias=False)
          (bn): BatchNorm2d(64, eps=1e-05, momentum=0.1, affine=True, track_running_stats=True)
        )
      )
      (ffn0): Residual(
        (m): FFN(
          (pw1): Conv2d_BN(
            (c): Conv2d(64, 128, kernel_size=(1, 1), stride=(1, 1), bias=False)
            (bn): BatchNorm2d(128, eps=1e-05, momentum=0.1, affine=True, track_running_stats=True)
          )
          (act): ReLU()
          (pw2): Conv2d_BN(
            (c): Conv2d(128, 64, kernel_size=(1, 1), stride=(1, 1), bias=False)
            (bn): BatchNorm2d(64, eps=1e-05, momentum=0.1, affine=True, track_running_stats=True)
          )
        )
      )
      (mixer): Residual(
        (m): LocalWindowAttention(
          (attn): CascadedGroupAttention(
            (qkvs): ModuleList(
              (0-3): 4 x Conv2d_BN(
                (c): Conv2d(16, 48, kernel_size=(1, 1), stride=(1, 1), bias=False)
                (bn): BatchNorm2d(48, eps=1e-05, momentum=0.1, affine=True, track_running_stats=True)
              )
            )
            (dws): ModuleList(
              (0-3): 4 x Conv2d_BN(
                (c): Conv2d(16, 16, kernel_size=(5, 5), stride=(1, 1), padding=(2, 2), groups=16, bias=False)
                (bn): BatchNorm2d(16, eps=1e-05, momentum=0.1, affine=True, track_running_stats=True)
              )
            )
            (proj): Sequential(
              (0): ReLU()
              (1): Conv2d_BN(
                (c): Conv2d(64, 64, kernel_size=(1, 1), stride=(1, 1), bias=False)
                (bn): BatchNorm2d(64, eps=1e-05, momentum=0.1, affine=True, track_running_stats=True)
              )
            )
          )
        )
      )
      (dw1): Residual(
        (m): Conv2d_BN(
          (c): Conv2d(64, 64, kernel_size=(3, 3), stride=(1, 1), padding=(1, 1), groups=64, bias=False)
          (bn): BatchNorm2d(64, eps=1e-05, momentum=0.1, affine=True, track_running_stats=True)
        )
      )
      (ffn1): Residual(
        (m): FFN(
          (pw1): Conv2d_BN(
            (c): Conv2d(64, 128, kernel_size=(1, 1), stride=(1, 1), bias=False)
            (bn): BatchNorm2d(128, eps=1e-05, momentum=0.1, affine=True, track_running_stats=True)
          )
          (act): ReLU()
          (pw2): Conv2d_BN(
            (c): Conv2d(128, 64, kernel_size=(1, 1), stride=(1, 1), bias=False)
            (bn): BatchNorm2d(64, eps=1e-05, momentum=0.1, affine=True, track_running_stats=True)
          )
        )
      )
    )
  )
  (blocks2): Sequential(
    (0): Sequential(
      (0): Residual(
        (m): Conv2d_BN(
          (c): Conv2d(64, 64, kernel_size=(3, 3), stride=(1, 1), padding=(1, 1), groups=64, bias=False)
          (bn): BatchNorm2d(64, eps=1e-05, momentum=0.1, affine=True, track_running_stats=True)
        )
      )
      (1): Residual(
        (m): FFN(
          (pw1): Conv2d_BN(
            (c): Conv2d(64, 128, kernel_size=(1, 1), stride=(1, 1), bias=False)
            (bn): BatchNorm2d(128, eps=1e-05, momentum=0.1, affine=True, track_running_stats=True)
          )
          (act): ReLU()
          (pw2): Conv2d_BN(
            (c): Conv2d(128, 64, kernel_size=(1, 1), stride=(1, 1), bias=False)
            (bn): BatchNorm2d(64, eps=1e-05, momentum=0.1, affine=True, track_running_stats=True)
          )
        )
      )
    )
    (1): PatchMerging(
      (conv1): Conv2d_BN(
        (c): Conv2d(64, 256, kernel_size=(1, 1), stride=(1, 1), bias=False)
        (bn): BatchNorm2d(256, eps=1e-05, momentum=0.1, affine=True, track_running_stats=True)
      )
      (act): ReLU()
      (conv2): Conv2d_BN(
        (c): Conv2d(256, 256, kernel_size=(3, 3), stride=(2, 2), padding=(1, 1), groups=256, bias=False)
        (bn): BatchNorm2d(256, eps=1e-05, momentum=0.1, affine=True, track_running_stats=True)
      )
      (se): SEModule(
        (fc1): Conv2d(256, 64, kernel_size=(1, 1), stride=(1, 1))
        (bn): Identity()
        (act): ReLU(inplace=True)
        (fc2): Conv2d(64, 256, kernel_size=(1, 1), stride=(1, 1))
        (gate): Sigmoid()
      )
      (conv3): Conv2d_BN(
        (c): Conv2d(256, 128, kernel_size=(1, 1), stride=(1, 1), bias=False)
        (bn): BatchNorm2d(128, eps=1e-05, momentum=0.1, affine=True, track_running_stats=True)
      )
    )
    (2): Sequential(
      (0): Residual(
        (m): Conv2d_BN(
          (c): Conv2d(128, 128, kernel_size=(3, 3), stride=(1, 1), padding=(1, 1), groups=128, bias=False)
          (bn): BatchNorm2d(128, eps=1e-05, momentum=0.1, affine=True, track_running_stats=True)
        )
      )
      (1): Residual(
        (m): FFN(
          (pw1): Conv2d_BN(
            (c): Conv2d(128, 256, kernel_size=(1, 1), stride=(1, 1), bias=False)
            (bn): BatchNorm2d(256, eps=1e-05, momentum=0.1, affine=True, track_running_stats=True)
          )
          (act): ReLU()
          (pw2): Conv2d_BN(
            (c): Conv2d(256, 128, kernel_size=(1, 1), stride=(1, 1), bias=False)
            (bn): BatchNorm2d(128, eps=1e-05, momentum=0.1, affine=True, track_running_stats=True)
          )
        )
      )
    )
    (3): EfficientViTBlock(
      (dw0): Residual(
        (m): Conv2d_BN(
          (c): Conv2d(128, 128, kernel_size=(3, 3), stride=(1, 1), padding=(1, 1), groups=128, bias=False)
          (bn): BatchNorm2d(128, eps=1e-05, momentum=0.1, affine=True, track_running_stats=True)
        )
      )
      (ffn0): Residual(
        (m): FFN(
          (pw1): Conv2d_BN(
            (c): Conv2d(128, 256, kernel_size=(1, 1), stride=(1, 1), bias=False)
            (bn): BatchNorm2d(256, eps=1e-05, momentum=0.1, affine=True, track_running_stats=True)
          )
          (act): ReLU()
          (pw2): Conv2d_BN(
            (c): Conv2d(256, 128, kernel_size=(1, 1), stride=(1, 1), bias=False)
            (bn): BatchNorm2d(128, eps=1e-05, momentum=0.1, affine=True, track_running_stats=True)
          )
        )
      )
      (mixer): Residual(
        (m): LocalWindowAttention(
          (attn): CascadedGroupAttention(
            (qkvs): ModuleList(
              (0-3): 4 x Conv2d_BN(
                (c): Conv2d(32, 64, kernel_size=(1, 1), stride=(1, 1), bias=False)
                (bn): BatchNorm2d(64, eps=1e-05, momentum=0.1, affine=True, track_running_stats=True)
              )
            )
            (dws): ModuleList(
              (0-3): 4 x Conv2d_BN(
                (c): Conv2d(16, 16, kernel_size=(5, 5), stride=(1, 1), padding=(2, 2), groups=16, bias=False)
                (bn): BatchNorm2d(16, eps=1e-05, momentum=0.1, affine=True, track_running_stats=True)
              )
            )
            (proj): Sequential(
              (0): ReLU()
              (1): Conv2d_BN(
                (c): Conv2d(128, 128, kernel_size=(1, 1), stride=(1, 1), bias=False)
                (bn): BatchNorm2d(128, eps=1e-05, momentum=0.1, affine=True, track_running_stats=True)
              )
            )
          )
        )
      )
      (dw1): Residual(
        (m): Conv2d_BN(
          (c): Conv2d(128, 128, kernel_size=(3, 3), stride=(1, 1), padding=(1, 1), groups=128, bias=False)
          (bn): BatchNorm2d(128, eps=1e-05, momentum=0.1, affine=True, track_running_stats=True)
        )
      )
      (ffn1): Residual(
        (m): FFN(
          (pw1): Conv2d_BN(
            (c): Conv2d(128, 256, kernel_size=(1, 1), stride=(1, 1), bias=False)
            (bn): BatchNorm2d(256, eps=1e-05, momentum=0.1, affine=True, track_running_stats=True)
          )
          (act): ReLU()
          (pw2): Conv2d_BN(
            (c): Conv2d(256, 128, kernel_size=(1, 1), stride=(1, 1), bias=False)
            (bn): BatchNorm2d(128, eps=1e-05, momentum=0.1, affine=True, track_running_stats=True)
          )
        )
      )
    )
    (4): EfficientViTBlock(
      (dw0): Residual(
        (m): Conv2d_BN(
          (c): Conv2d(128, 128, kernel_size=(3, 3), stride=(1, 1), padding=(1, 1), groups=128, bias=False)
          (bn): BatchNorm2d(128, eps=1e-05, momentum=0.1, affine=True, track_running_stats=True)
        )
      )
      (ffn0): Residual(
        (m): FFN(
          (pw1): Conv2d_BN(
            (c): Conv2d(128, 256, kernel_size=(1, 1), stride=(1, 1), bias=False)
            (bn): BatchNorm2d(256, eps=1e-05, momentum=0.1, affine=True, track_running_stats=True)
          )
          (act): ReLU()
          (pw2): Conv2d_BN(
            (c): Conv2d(256, 128, kernel_size=(1, 1), stride=(1, 1), bias=False)
            (bn): BatchNorm2d(128, eps=1e-05, momentum=0.1, affine=True, track_running_stats=True)
          )
        )
      )
      (mixer): Residual(
        (m): LocalWindowAttention(
          (attn): CascadedGroupAttention(
            (qkvs): ModuleList(
              (0-3): 4 x Conv2d_BN(
                (c): Conv2d(32, 64, kernel_size=(1, 1), stride=(1, 1), bias=False)
                (bn): BatchNorm2d(64, eps=1e-05, momentum=0.1, affine=True, track_running_stats=True)
              )
            )
            (dws): ModuleList(
              (0-3): 4 x Conv2d_BN(
                (c): Conv2d(16, 16, kernel_size=(5, 5), stride=(1, 1), padding=(2, 2), groups=16, bias=False)
                (bn): BatchNorm2d(16, eps=1e-05, momentum=0.1, affine=True, track_running_stats=True)
              )
            )
            (proj): Sequential(
              (0): ReLU()
              (1): Conv2d_BN(
                (c): Conv2d(128, 128, kernel_size=(1, 1), stride=(1, 1), bias=False)
                (bn): BatchNorm2d(128, eps=1e-05, momentum=0.1, affine=True, track_running_stats=True)
              )
            )
          )
        )
      )
      (dw1): Residual(
        (m): Conv2d_BN(
          (c): Conv2d(128, 128, kernel_size=(3, 3), stride=(1, 1), padding=(1, 1), groups=128, bias=False)
          (bn): BatchNorm2d(128, eps=1e-05, momentum=0.1, affine=True, track_running_stats=True)
        )
      )
      (ffn1): Residual(
        (m): FFN(
          (pw1): Conv2d_BN(
            (c): Conv2d(128, 256, kernel_size=(1, 1), stride=(1, 1), bias=False)
            (bn): BatchNorm2d(256, eps=1e-05, momentum=0.1, affine=True, track_running_stats=True)
          )
          (act): ReLU()
          (pw2): Conv2d_BN(
            (c): Conv2d(256, 128, kernel_size=(1, 1), stride=(1, 1), bias=False)
            (bn): BatchNorm2d(128, eps=1e-05, momentum=0.1, affine=True, track_running_stats=True)
          )
        )
      )
    )
  )
  (blocks3): Sequential(
    (0): Sequential(
      (0): Residual(
        (m): Conv2d_BN(
          (c): Conv2d(128, 128, kernel_size=(3, 3), stride=(1, 1), padding=(1, 1), groups=128, bias=False)
          (bn): BatchNorm2d(128, eps=1e-05, momentum=0.1, affine=True, track_running_stats=True)
        )
      )
      (1): Residual(
        (m): FFN(
          (pw1): Conv2d_BN(
            (c): Conv2d(128, 256, kernel_size=(1, 1), stride=(1, 1), bias=False)
            (bn): BatchNorm2d(256, eps=1e-05, momentum=0.1, affine=True, track_running_stats=True)
          )
          (act): ReLU()
          (pw2): Conv2d_BN(
            (c): Conv2d(256, 128, kernel_size=(1, 1), stride=(1, 1), bias=False)
            (bn): BatchNorm2d(128, eps=1e-05, momentum=0.1, affine=True, track_running_stats=True)
          )
        )
      )
    )
    (1): PatchMerging(
      (conv1): Conv2d_BN(
        (c): Conv2d(128, 512, kernel_size=(1, 1), stride=(1, 1), bias=False)
        (bn): BatchNorm2d(512, eps=1e-05, momentum=0.1, affine=True, track_running_stats=True)
      )
      (act): ReLU()
      (conv2): Conv2d_BN(
        (c): Conv2d(512, 512, kernel_size=(3, 3), stride=(2, 2), padding=(1, 1), groups=512, bias=False)
        (bn): BatchNorm2d(512, eps=1e-05, momentum=0.1, affine=True, track_running_stats=True)
      )
      (se): SEModule(
        (fc1): Conv2d(512, 128, kernel_size=(1, 1), stride=(1, 1))
        (bn): Identity()
        (act): ReLU(inplace=True)
        (fc2): Conv2d(128, 512, kernel_size=(1, 1), stride=(1, 1))
        (gate): Sigmoid()
      )
      (conv3): Conv2d_BN(
        (c): Conv2d(512, 192, kernel_size=(1, 1), stride=(1, 1), bias=False)
        (bn): BatchNorm2d(192, eps=1e-05, momentum=0.1, affine=True, track_running_stats=True)
      )
    )
    (2): Sequential(
      (0): Residual(
        (m): Conv2d_BN(
          (c): Conv2d(192, 192, kernel_size=(3, 3), stride=(1, 1), padding=(1, 1), groups=192, bias=False)
          (bn): BatchNorm2d(192, eps=1e-05, momentum=0.1, affine=True, track_running_stats=True)
        )
      )
      (1): Residual(
        (m): FFN(
          (pw1): Conv2d_BN(
            (c): Conv2d(192, 384, kernel_size=(1, 1), stride=(1, 1), bias=False)
            (bn): BatchNorm2d(384, eps=1e-05, momentum=0.1, affine=True, track_running_stats=True)
          )
          (act): ReLU()
          (pw2): Conv2d_BN(
            (c): Conv2d(384, 192, kernel_size=(1, 1), stride=(1, 1), bias=False)
            (bn): BatchNorm2d(192, eps=1e-05, momentum=0.1, affine=True, track_running_stats=True)
          )
        )
      )
    )
    (3): EfficientViTBlock(
      (dw0): Residual(
        (m): Conv2d_BN(
          (c): Conv2d(192, 192, kernel_size=(3, 3), stride=(1, 1), padding=(1, 1), groups=192, bias=False)
          (bn): BatchNorm2d(192, eps=1e-05, momentum=0.1, affine=True, track_running_stats=True)
        )
      )
      (ffn0): Residual(
        (m): FFN(
          (pw1): Conv2d_BN(
            (c): Conv2d(192, 384, kernel_size=(1, 1), stride=(1, 1), bias=False)
            (bn): BatchNorm2d(384, eps=1e-05, momentum=0.1, affine=True, track_running_stats=True)
          )
          (act): ReLU()
          (pw2): Conv2d_BN(
            (c): Conv2d(384, 192, kernel_size=(1, 1), stride=(1, 1), bias=False)
            (bn): BatchNorm2d(192, eps=1e-05, momentum=0.1, affine=True, track_running_stats=True)
          )
        )
      )
      (mixer): Residual(
        (m): LocalWindowAttention(
          (attn): CascadedGroupAttention(
            (qkvs): ModuleList(
              (0-3): 4 x Conv2d_BN(
                (c): Conv2d(48, 80, kernel_size=(1, 1), stride=(1, 1), bias=False)
                (bn): BatchNorm2d(80, eps=1e-05, momentum=0.1, affine=True, track_running_stats=True)
              )
            )
            (dws): ModuleList(
              (0-3): 4 x Conv2d_BN(
                (c): Conv2d(16, 16, kernel_size=(5, 5), stride=(1, 1), padding=(2, 2), groups=16, bias=False)
                (bn): BatchNorm2d(16, eps=1e-05, momentum=0.1, affine=True, track_running_stats=True)
              )
            )
            (proj): Sequential(
              (0): ReLU()
              (1): Conv2d_BN(
                (c): Conv2d(192, 192, kernel_size=(1, 1), stride=(1, 1), bias=False)
                (bn): BatchNorm2d(192, eps=1e-05, momentum=0.1, affine=True, track_running_stats=True)
              )
            )
          )
        )
      )
      (dw1): Residual(
        (m): Conv2d_BN(
          (c): Conv2d(192, 192, kernel_size=(3, 3), stride=(1, 1), padding=(1, 1), groups=192, bias=False)
          (bn): BatchNorm2d(192, eps=1e-05, momentum=0.1, affine=True, track_running_stats=True)
        )
      )
      (ffn1): Residual(
        (m): FFN(
          (pw1): Conv2d_BN(
            (c): Conv2d(192, 384, kernel_size=(1, 1), stride=(1, 1), bias=False)
            (bn): BatchNorm2d(384, eps=1e-05, momentum=0.1, affine=True, track_running_stats=True)
          )
          (act): ReLU()
          (pw2): Conv2d_BN(
            (c): Conv2d(384, 192, kernel_size=(1, 1), stride=(1, 1), bias=False)
            (bn): BatchNorm2d(192, eps=1e-05, momentum=0.1, affine=True, track_running_stats=True)
          )
        )
      )
    )
    (4): EfficientViTBlock(
      (dw0): Residual(
        (m): Conv2d_BN(
          (c): Conv2d(192, 192, kernel_size=(3, 3), stride=(1, 1), padding=(1, 1), groups=192, bias=False)
          (bn): BatchNorm2d(192, eps=1e-05, momentum=0.1, affine=True, track_running_stats=True)
        )
      )
      (ffn0): Residual(
        (m): FFN(
          (pw1): Conv2d_BN(
            (c): Conv2d(192, 384, kernel_size=(1, 1), stride=(1, 1), bias=False)
            (bn): BatchNorm2d(384, eps=1e-05, momentum=0.1, affine=True, track_running_stats=True)
          )
          (act): ReLU()
          (pw2): Conv2d_BN(
            (c): Conv2d(384, 192, kernel_size=(1, 1), stride=(1, 1), bias=False)
            (bn): BatchNorm2d(192, eps=1e-05, momentum=0.1, affine=True, track_running_stats=True)
          )
        )
      )
      (mixer): Residual(
        (m): LocalWindowAttention(
          (attn): CascadedGroupAttention(
            (qkvs): ModuleList(
              (0-3): 4 x Conv2d_BN(
                (c): Conv2d(48, 80, kernel_size=(1, 1), stride=(1, 1), bias=False)
                (bn): BatchNorm2d(80, eps=1e-05, momentum=0.1, affine=True, track_running_stats=True)
              )
            )
            (dws): ModuleList(
              (0-3): 4 x Conv2d_BN(
                (c): Conv2d(16, 16, kernel_size=(5, 5), stride=(1, 1), padding=(2, 2), groups=16, bias=False)
                (bn): BatchNorm2d(16, eps=1e-05, momentum=0.1, affine=True, track_running_stats=True)
              )
            )
            (proj): Sequential(
              (0): ReLU()
              (1): Conv2d_BN(
                (c): Conv2d(192, 192, kernel_size=(1, 1), stride=(1, 1), bias=False)
                (bn): BatchNorm2d(192, eps=1e-05, momentum=0.1, affine=True, track_running_stats=True)
              )
            )
          )
        )
      )
      (dw1): Residual(
        (m): Conv2d_BN(
          (c): Conv2d(192, 192, kernel_size=(3, 3), stride=(1, 1), padding=(1, 1), groups=192, bias=False)
          (bn): BatchNorm2d(192, eps=1e-05, momentum=0.1, affine=True, track_running_stats=True)
        )
      )
      (ffn1): Residual(
        (m): FFN(
          (pw1): Conv2d_BN(
            (c): Conv2d(192, 384, kernel_size=(1, 1), stride=(1, 1), bias=False)
            (bn): BatchNorm2d(384, eps=1e-05, momentum=0.1, affine=True, track_running_stats=True)
          )
          (act): ReLU()
          (pw2): Conv2d_BN(
            (c): Conv2d(384, 192, kernel_size=(1, 1), stride=(1, 1), bias=False)
            (bn): BatchNorm2d(192, eps=1e-05, momentum=0.1, affine=True, track_running_stats=True)
          )
        )
      )
    )
    (5): EfficientViTBlock(
      (dw0): Residual(
        (m): Conv2d_BN(
          (c): Conv2d(192, 192, kernel_size=(3, 3), stride=(1, 1), padding=(1, 1), groups=192, bias=False)
          (bn): BatchNorm2d(192, eps=1e-05, momentum=0.1, affine=True, track_running_stats=True)
        )
      )
      (ffn0): Residual(
        (m): FFN(
          (pw1): Conv2d_BN(
            (c): Conv2d(192, 384, kernel_size=(1, 1), stride=(1, 1), bias=False)
            (bn): BatchNorm2d(384, eps=1e-05, momentum=0.1, affine=True, track_running_stats=True)
          )
          (act): ReLU()
          (pw2): Conv2d_BN(
            (c): Conv2d(384, 192, kernel_size=(1, 1), stride=(1, 1), bias=False)
            (bn): BatchNorm2d(192, eps=1e-05, momentum=0.1, affine=True, track_running_stats=True)
          )
        )
      )
      (mixer): Residual(
        (m): LocalWindowAttention(
          (attn): CascadedGroupAttention(
            (qkvs): ModuleList(
              (0-3): 4 x Conv2d_BN(
                (c): Conv2d(48, 80, kernel_size=(1, 1), stride=(1, 1), bias=False)
                (bn): BatchNorm2d(80, eps=1e-05, momentum=0.1, affine=True, track_running_stats=True)
              )
            )
            (dws): ModuleList(
              (0-3): 4 x Conv2d_BN(
                (c): Conv2d(16, 16, kernel_size=(5, 5), stride=(1, 1), padding=(2, 2), groups=16, bias=False)
                (bn): BatchNorm2d(16, eps=1e-05, momentum=0.1, affine=True, track_running_stats=True)
              )
            )
            (proj): Sequential(
              (0): ReLU()
              (1): Conv2d_BN(
                (c): Conv2d(192, 192, kernel_size=(1, 1), stride=(1, 1), bias=False)
                (bn): BatchNorm2d(192, eps=1e-05, momentum=0.1, affine=True, track_running_stats=True)
              )
            )
          )
        )
      )
      (dw1): Residual(
        (m): Conv2d_BN(
          (c): Conv2d(192, 192, kernel_size=(3, 3), stride=(1, 1), padding=(1, 1), groups=192, bias=False)
          (bn): BatchNorm2d(192, eps=1e-05, momentum=0.1, affine=True, track_running_stats=True)
        )
      )
      (ffn1): Residual(
        (m): FFN(
          (pw1): Conv2d_BN(
            (c): Conv2d(192, 384, kernel_size=(1, 1), stride=(1, 1), bias=False)
            (bn): BatchNorm2d(384, eps=1e-05, momentum=0.1, affine=True, track_running_stats=True)
          )
          (act): ReLU()
          (pw2): Conv2d_BN(
            (c): Conv2d(384, 192, kernel_size=(1, 1), stride=(1, 1), bias=False)
            (bn): BatchNorm2d(192, eps=1e-05, momentum=0.1, affine=True, track_running_stats=True)
          )
        )
      )
    )
  )
  (head): BN_Linear(
    (bn): BatchNorm1d(192, eps=1e-05, momentum=0.1, affine=True, track_running_stats=True)
    (l): Linear(in_features=192, out_features=100, bias=True)
  )
)MyEfficientViT(
  (patch_emb): OverlapPatchEmbedding(
    (proj): Sequential(
      (0): Conv_BN(
        (conv): Conv2d(3, 8, kernel_size=(3, 3), stride=(2, 2), padding=(1, 1), bias=False)
        (bn): BatchNorm2d(8, eps=1e-05, momentum=0.1, affine=True, track_running_stats=True)
      )
      (1): ReLU()
      (2): Conv_BN(
        (conv): Conv2d(8, 16, kernel_size=(3, 3), stride=(2, 2), padding=(1, 1), bias=False)
        (bn): BatchNorm2d(16, eps=1e-05, momentum=0.1, affine=True, track_running_stats=True)
      )
      (3): ReLU()
      (4): Conv_BN(
        (conv): Conv2d(16, 32, kernel_size=(3, 3), stride=(2, 2), padding=(1, 1), bias=False)
        (bn): BatchNorm2d(32, eps=1e-05, momentum=0.1, affine=True, track_running_stats=True)
      )
      (5): ReLU()
      (6): Conv_BN(
        (conv): Conv2d(32, 64, kernel_size=(3, 3), stride=(2, 2), padding=(1, 1), bias=False)
        (bn): BatchNorm2d(64, eps=1e-05, momentum=0.1, affine=True, track_running_stats=True)
      )
      (7): ReLU()
    )
  )
  (evit1): Sequential(
    (evit1_1): EfficientVitBlock(
      (att): LocalWindowAttention(
        (attn): CascadedGroupAttention(
          (p): Conv_BN(
            (conv): Conv2d(64, 64, kernel_size=(1, 1), stride=(1, 1), bias=False)
            (bn): BatchNorm2d(64, eps=1e-05, momentum=0.1, affine=True, track_running_stats=True)
          )
          (act): ReLU()
        )
      )
    )
  )
  (evit2): Sequential(
    (evit2_1): EfficientVitBlock(
      (att): LocalWindowAttention(
        (attn): CascadedGroupAttention(
          (p): Conv_BN(
            (conv): Conv2d(128, 128, kernel_size=(1, 1), stride=(1, 1), bias=False)
            (bn): BatchNorm2d(128, eps=1e-05, momentum=0.1, affine=True, track_running_stats=True)
          )
          (act): ReLU()
        )
      )
    )
    (evit2_2): EfficientVitBlock(
      (att): LocalWindowAttention(
        (attn): CascadedGroupAttention(
          (p): Conv_BN(
            (conv): Conv2d(128, 128, kernel_size=(1, 1), stride=(1, 1), bias=False)
            (bn): BatchNorm2d(128, eps=1e-05, momentum=0.1, affine=True, track_running_stats=True)
          )
          (act): ReLU()
        )
      )
    )
  )
  (evit3): Sequential(
    (evit2_1): EfficientVitBlock(
      (att): LocalWindowAttention(
        (attn): CascadedGroupAttention(
          (p): Conv_BN(
            (conv): Conv2d(192, 192, kernel_size=(1, 1), stride=(1, 1), bias=False)
            (bn): BatchNorm2d(192, eps=1e-05, momentum=0.1, affine=True, track_running_stats=True)
          )
          (act): ReLU()
        )
      )
    )
    (evit2_2): EfficientVitBlock(
      (att): LocalWindowAttention(
        (attn): CascadedGroupAttention(
          (p): Conv_BN(
            (conv): Conv2d(192, 192, kernel_size=(1, 1), stride=(1, 1), bias=False)
            (bn): BatchNorm2d(192, eps=1e-05, momentum=0.1, affine=True, track_running_stats=True)
          )
          (act): ReLU()
        )
      )
    )
    (evit2_3): EfficientVitBlock(
      (att): LocalWindowAttention(
        (attn): CascadedGroupAttention(
          (p): Conv_BN(
            (conv): Conv2d(192, 192, kernel_size=(1, 1), stride=(1, 1), bias=False)
            (bn): BatchNorm2d(192, eps=1e-05, momentum=0.1, affine=True, track_running_stats=True)
          )
          (act): ReLU()
        )
      )
    )
  )
  (subs1): SubSamplingBlock(
    (dwconv): InvertedResidualBlock(
      (conv1): Conv_BN(
        (conv): Conv2d(64, 256, kernel_size=(1, 1), stride=(1, 1), bias=False)
        (bn): BatchNorm2d(256, eps=1e-05, momentum=0.1, affine=True, track_running_stats=True)
      )
      (act1): ReLU()
      (conv2): Conv_BN(
        (conv): Conv2d(256, 256, kernel_size=(3, 3), stride=(2, 2), padding=(1, 1), groups=256, bias=False)
        (bn): BatchNorm2d(256, eps=1e-05, momentum=0.1, affine=True, track_running_stats=True)
      )
      (se): SqueezeExcite(
        (ap): AdaptiveAvgPool2d(output_size=(1, 1))
        (fc1): Conv2d(256, 64, kernel_size=(1, 1), stride=(1, 1))
        (act1): ReLU()
        (fc2): Conv2d(64, 256, kernel_size=(1, 1), stride=(1, 1))
        (act2): Sigmoid()
      )
      (conv3): Conv_BN(
        (conv): Conv2d(256, 128, kernel_size=(1, 1), stride=(1, 1), bias=False)
        (bn): BatchNorm2d(128, eps=1e-05, momentum=0.1, affine=True, track_running_stats=True)
      )
    )
  )
  (subs2): SubSamplingBlock(
    (dwconv): InvertedResidualBlock(
      (conv1): Conv_BN(
        (conv): Conv2d(128, 512, kernel_size=(1, 1), stride=(1, 1), bias=False)
        (bn): BatchNorm2d(512, eps=1e-05, momentum=0.1, affine=True, track_running_stats=True)
      )
      (act1): ReLU()
      (conv2): Conv_BN(
        (conv): Conv2d(512, 512, kernel_size=(3, 3), stride=(2, 2), padding=(1, 1), groups=512, bias=False)
        (bn): BatchNorm2d(512, eps=1e-05, momentum=0.1, affine=True, track_running_stats=True)
      )
      (se): SqueezeExcite(
        (ap): AdaptiveAvgPool2d(output_size=(1, 1))
        (fc1): Conv2d(512, 128, kernel_size=(1, 1), stride=(1, 1))
        (act1): ReLU()
        (fc2): Conv2d(128, 512, kernel_size=(1, 1), stride=(1, 1))
        (act2): Sigmoid()
      )
      (conv3): Conv_BN(
        (conv): Conv2d(512, 192, kernel_size=(1, 1), stride=(1, 1), bias=False)
        (bn): BatchNorm2d(192, eps=1e-05, momentum=0.1, affine=True, track_running_stats=True)
      )
    )
  )
  (output): OutputLayer(
    (pool): AdaptiveAvgPool2d(output_size=(1, 1))
    (fc): BN_Linear(
      (bn): BatchNorm1d(192, eps=1e-05, momentum=0.1, affine=True, track_running_stats=True)
      (linear): Linear(in_features=192, out_features=100, bias=True)
    )
  )
)MyEfficientViT(
  (patch_emb): OverlapPatchEmbedding(
    (proj): Sequential(
      (0): Conv_BN(
        (conv): Conv2d(3, 8, kernel_size=(3, 3), stride=(2, 2), padding=(1, 1), bias=False)
        (bn): BatchNorm2d(8, eps=1e-05, momentum=0.1, affine=True, track_running_stats=True)
      )
      (1): ReLU()
      (2): Conv_BN(
        (conv): Conv2d(8, 16, kernel_size=(3, 3), stride=(2, 2), padding=(1, 1), bias=False)
        (bn): BatchNorm2d(16, eps=1e-05, momentum=0.1, affine=True, track_running_stats=True)
      )
      (3): ReLU()
      (4): Conv_BN(
        (conv): Conv2d(16, 32, kernel_size=(3, 3), stride=(2, 2), padding=(1, 1), bias=False)
        (bn): BatchNorm2d(32, eps=1e-05, momentum=0.1, affine=True, track_running_stats=True)
      )
      (5): ReLU()
      (6): Conv_BN(
        (conv): Conv2d(32, 64, kernel_size=(3, 3), stride=(2, 2), padding=(1, 1), bias=False)
        (bn): BatchNorm2d(64, eps=1e-05, momentum=0.1, affine=True, track_running_stats=True)
      )
      (7): ReLU()
    )
  )
  (evit1): Sequential(
    (evit1_1): EfficientVitBlock(
      (att): LocalWindowAttention(
        (attn): CascadedGroupAttention(
          (p): Conv_BN(
            (conv): Conv2d(64, 64, kernel_size=(1, 1), stride=(1, 1), bias=False)
            (bn): BatchNorm2d(64, eps=1e-05, momentum=0.1, affine=True, track_running_stats=True)
          )
          (act): ReLU()
        )
      )
    )
  )
  (evit2): Sequential(
    (evit2_1): EfficientVitBlock(
      (att): LocalWindowAttention(
        (attn): CascadedGroupAttention(
          (p): Conv_BN(
            (conv): Conv2d(128, 128, kernel_size=(1, 1), stride=(1, 1), bias=False)
            (bn): BatchNorm2d(128, eps=1e-05, momentum=0.1, affine=True, track_running_stats=True)
          )
          (act): ReLU()
        )
      )
    )
    (evit2_2): EfficientVitBlock(
      (att): LocalWindowAttention(
        (attn): CascadedGroupAttention(
          (p): Conv_BN(
            (conv): Conv2d(128, 128, kernel_size=(1, 1), stride=(1, 1), bias=False)
            (bn): BatchNorm2d(128, eps=1e-05, momentum=0.1, affine=True, track_running_stats=True)
          )
          (act): ReLU()
        )
      )
    )
  )
  (evit3): Sequential(
    (evit2_1): EfficientVitBlock(
      (att): LocalWindowAttention(
        (attn): CascadedGroupAttention(
          (p): Conv_BN(
…
            (0-3): 4 x Conv_BN(
              (conv): Conv2d(32, 32, kernel_size=(1, 1), stride=(1, 1), bias=False)
              (bn): BatchNorm2d(32, eps=1e-05, momentum=0.1, affine=True, track_running_stats=True)
            )
          )
          (p): Conv_BN(
            (conv): Conv2d(128, 128, kernel_size=(1, 1), stride=(1, 1), bias=False)
            (bn): BatchNorm2d(128, eps=1e-05, momentum=0.1, affine=True, track_running_stats=True)
          )
          (act): ReLU()
        )
      )
      (interact2): ModuleList(
        (0): Residual(
          (f): TokenInteractionBlock(
            (dwconv): Conv_BN(
              (conv): Conv2d(128, 128, kernel_size=(3, 3), stride=(1, 1), padding=(1, 1), groups=128, bias=False)
              (bn): BatchNorm2d(128, eps=1e-05, momentum=0.1, affine=True, track_running_stats=True)
            )
          )
        )
      )
      (ffn2): ModuleList(
        (0): Residual(
          (f): FFN(
            (conv1): Conv_BN(
              (conv): Conv2d(128, 256, kernel_size=(1, 1), stride=(1, 1), bias=False)
              (bn): BatchNorm2d(256, eps=1e-05, momentum=0.1, affine=True, track_running_stats=True)
            )
            (act): ReLU()
            (conv2): Conv_BN(
              (conv): Conv2d(256, 128, kernel_size=(1, 1), stride=(1, 1), bias=False)
              (bn): BatchNorm2d(128, eps=1e-05, momentum=0.1, affine=True, track_running_stats=True)
            )
          )
        )
      )
    )
    (evit2_2): EfficientVitBlock(
      (interact1): ModuleList(
        (0): Residual(
          (f): TokenInteractionBlock(
            (dwconv): Conv_BN(
              (conv): Conv2d(128, 128, kernel_size=(3, 3), stride=(1, 1), padding=(1, 1), groups=128, bias=False)
              (bn): BatchNorm2d(128, eps=1e-05, momentum=0.1, affine=True, track_running_stats=True)
            )
          )
        )
      )
      (ffn1): ModuleList(
        (0): Residual(
          (f): FFN(
            (conv1): Conv_BN(
              (conv): Conv2d(128, 256, kernel_size=(1, 1), stride=(1, 1), bias=False)
              (bn): BatchNorm2d(256, eps=1e-05, momentum=0.1, affine=True, track_running_stats=True)
            )
            (act): ReLU()
            (conv2): Conv_BN(
              (conv): Conv2d(256, 128, kernel_size=(1, 1), stride=(1, 1), bias=False)
              (bn): BatchNorm2d(128, eps=1e-05, momentum=0.1, affine=True, track_running_stats=True)
            )
          )
        )
      )
      (att): LocalWindowAttention(
        (attn): CascadedGroupAttention(
          (q): ModuleList(
            (0-3): 4 x Conv_BN(
              (conv): Conv2d(32, 16, kernel_size=(1, 1), stride=(1, 1), bias=False)
              (bn): BatchNorm2d(16, eps=1e-05, momentum=0.1, affine=True, track_running_stats=True)
            )
          )
          (dwconv): ModuleList(
            (0-3): 4 x TokenInteractionBlock(
              (dwconv): Conv_BN(
                (conv): Conv2d(16, 16, kernel_size=(5, 5), stride=(1, 1), padding=(2, 2), groups=16, bias=False)
                (bn): BatchNorm2d(16, eps=1e-05, momentum=0.1, affine=True, track_running_stats=True)
              )
            )
          )
          (k): ModuleList(
            (0-3): 4 x Conv_BN(
              (conv): Conv2d(32, 16, kernel_size=(1, 1), stride=(1, 1), bias=False)
              (bn): BatchNorm2d(16, eps=1e-05, momentum=0.1, affine=True, track_running_stats=True)
            )
          )
          (v): ModuleList(
            (0-3): 4 x Conv_BN(
              (conv): Conv2d(32, 32, kernel_size=(1, 1), stride=(1, 1), bias=False)
              (bn): BatchNorm2d(32, eps=1e-05, momentum=0.1, affine=True, track_running_stats=True)
            )
          )
          (p): Conv_BN(
            (conv): Conv2d(128, 128, kernel_size=(1, 1), stride=(1, 1), bias=False)
            (bn): BatchNorm2d(128, eps=1e-05, momentum=0.1, affine=True, track_running_stats=True)
          )
          (act): ReLU()
        )
      )
      (interact2): ModuleList(
        (0): Residual(
          (f): TokenInteractionBlock(
            (dwconv): Conv_BN(
              (conv): Conv2d(128, 128, kernel_size=(3, 3), stride=(1, 1), padding=(1, 1), groups=128, bias=False)
              (bn): BatchNorm2d(128, eps=1e-05, momentum=0.1, affine=True, track_running_stats=True)
            )
          )
        )
      )
      (ffn2): ModuleList(
        (0): Residual(
          (f): FFN(
            (conv1): Conv_BN(
              (conv): Conv2d(128, 256, kernel_size=(1, 1), stride=(1, 1), bias=False)
              (bn): BatchNorm2d(256, eps=1e-05, momentum=0.1, affine=True, track_running_stats=True)
            )
            (act): ReLU()
            (conv2): Conv_BN(
              (conv): Conv2d(256, 128, kernel_size=(1, 1), stride=(1, 1), bias=False)
              (bn): BatchNorm2d(128, eps=1e-05, momentum=0.1, affine=True, track_running_stats=True)
            )
          )
        )
      )
    )
  )
  (evit3): Sequential(
    (evit2_1): EfficientVitBlock(
      (interact1): ModuleList(
        (0): Residual(
          (f): TokenInteractionBlock(
            (dwconv): Conv_BN(
              (conv): Conv2d(192, 192, kernel_size=(3, 3), stride=(1, 1), padding=(1, 1), groups=192, bias=False)
              (bn): BatchNorm2d(192, eps=1e-05, momentum=0.1, affine=True, track_running_stats=True)
            )
          )
        )
      )
      (ffn1): ModuleList(
        (0): Residual(
          (f): FFN(
            (conv1): Conv_BN(
              (conv): Conv2d(192, 384, kernel_size=(1, 1), stride=(1, 1), bias=False)
              (bn): BatchNorm2d(384, eps=1e-05, momentum=0.1, affine=True, track_running_stats=True)
            )
            (act): ReLU()
            (conv2): Conv_BN(
              (conv): Conv2d(384, 192, kernel_size=(1, 1), stride=(1, 1), bias=False)
              (bn): BatchNorm2d(192, eps=1e-05, momentum=0.1, affine=True, track_running_stats=True)
            )
          )
        )
      )
      (att): LocalWindowAttention(
        (attn): CascadedGroupAttention(
          (q): ModuleList(
            (0-3): 4 x Conv_BN(
              (conv): Conv2d(48, 16, kernel_size=(1, 1), stride=(1, 1), bias=False)
              (bn): BatchNorm2d(16, eps=1e-05, momentum=0.1, affine=True, track_running_stats=True)
            )
          )
          (dwconv): ModuleList(
            (0-3): 4 x TokenInteractionBlock(
              (dwconv): Conv_BN(
                (conv): Conv2d(16, 16, kernel_size=(5, 5), stride=(1, 1), padding=(2, 2), groups=16, bias=False)
                (bn): BatchNorm2d(16, eps=1e-05, momentum=0.1, affine=True, track_running_stats=True)
              )
            )
          )
          (k): ModuleList(
            (0-3): 4 x Conv_BN(
              (conv): Conv2d(48, 16, kernel_size=(1, 1), stride=(1, 1), bias=False)
              (bn): BatchNorm2d(16, eps=1e-05, momentum=0.1, affine=True, track_running_stats=True)
            )
          )
          (v): ModuleList(
            (0-3): 4 x Conv_BN(
              (conv): Conv2d(48, 48, kernel_size=(1, 1), stride=(1, 1), bias=False)
              (bn): BatchNorm2d(48, eps=1e-05, momentum=0.1, affine=True, track_running_stats=True)
            )
          )
          (p): Conv_BN(
            (conv): Conv2d(192, 192, kernel_size=(1, 1), stride=(1, 1), bias=False)
            (bn): BatchNorm2d(192, eps=1e-05, momentum=0.1, affine=True, track_running_stats=True)
          )
          (act): ReLU()
        )
      )
      (interact2): ModuleList(
        (0): Residual(
          (f): TokenInteractionBlock(
            (dwconv): Conv_BN(
              (conv): Conv2d(192, 192, kernel_size=(3, 3), stride=(1, 1), padding=(1, 1), groups=192, bias=False)
              (bn): BatchNorm2d(192, eps=1e-05, momentum=0.1, affine=True, track_running_stats=True)
            )
          )
        )
      )
      (ffn2): ModuleList(
        (0): Residual(
          (f): FFN(
            (conv1): Conv_BN(
              (conv): Conv2d(192, 384, kernel_size=(1, 1), stride=(1, 1), bias=False)
              (bn): BatchNorm2d(384, eps=1e-05, momentum=0.1, affine=True, track_running_stats=True)
            )
            (act): ReLU()
            (conv2): Conv_BN(
              (conv): Conv2d(384, 192, kernel_size=(1, 1), stride=(1, 1), bias=False)
              (bn): BatchNorm2d(192, eps=1e-05, momentum=0.1, affine=True, track_running_stats=True)
            )
          )
        )
      )
    )
    (evit2_2): EfficientVitBlock(
      (interact1): ModuleList(
        (0): Residual(
          (f): TokenInteractionBlock(
            (dwconv): Conv_BN(
              (conv): Conv2d(192, 192, kernel_size=(3, 3), stride=(1, 1), padding=(1, 1), groups=192, bias=False)
              (bn): BatchNorm2d(192, eps=1e-05, momentum=0.1, affine=True, track_running_stats=True)
            )
          )
        )
      )
      (ffn1): ModuleList(
        (0): Residual(
          (f): FFN(
            (conv1): Conv_BN(
              (conv): Conv2d(192, 384, kernel_size=(1, 1), stride=(1, 1), bias=False)
              (bn): BatchNorm2d(384, eps=1e-05, momentum=0.1, affine=True, track_running_stats=True)
            )
            (act): ReLU()
            (conv2): Conv_BN(
              (conv): Conv2d(384, 192, kernel_size=(1, 1), stride=(1, 1), bias=False)
              (bn): BatchNorm2d(192, eps=1e-05, momentum=0.1, affine=True, track_running_stats=True)
            )
          )
        )
      )
      (att): LocalWindowAttention(
        (attn): CascadedGroupAttention(
          (q): ModuleList(
            (0-3): 4 x Conv_BN(
              (conv): Conv2d(48, 16, kernel_size=(1, 1), stride=(1, 1), bias=False)
              (bn): BatchNorm2d(16, eps=1e-05, momentum=0.1, affine=True, track_running_stats=True)
            )
          )
          (dwconv): ModuleList(
            (0-3): 4 x TokenInteractionBlock(
              (dwconv): Conv_BN(
                (conv): Conv2d(16, 16, kernel_size=(5, 5), stride=(1, 1), padding=(2, 2), groups=16, bias=False)
                (bn): BatchNorm2d(16, eps=1e-05, momentum=0.1, affine=True, track_running_stats=True)
              )
            )
          )
          (k): ModuleList(
            (0-3): 4 x Conv_BN(
              (conv): Conv2d(48, 16, kernel_size=(1, 1), stride=(1, 1), bias=False)
              (bn): BatchNorm2d(16, eps=1e-05, momentum=0.1, affine=True, track_running_stats=True)
            )
          )
          (v): ModuleList(
            (0-3): 4 x Conv_BN(
              (conv): Conv2d(48, 48, kernel_size=(1, 1), stride=(1, 1), bias=False)
              (bn): BatchNorm2d(48, eps=1e-05, momentum=0.1, affine=True, track_running_stats=True)
            )
          )
          (p): Conv_BN(
            (conv): Conv2d(192, 192, kernel_size=(1, 1), stride=(1, 1), bias=False)
            (bn): BatchNorm2d(192, eps=1e-05, momentum=0.1, affine=True, track_running_stats=True)
          )
          (act): ReLU()
        )
      )
      (interact2): ModuleList(
        (0): Residual(
          (f): TokenInteractionBlock(
            (dwconv): Conv_BN(
              (conv): Conv2d(192, 192, kernel_size=(3, 3), stride=(1, 1), padding=(1, 1), groups=192, bias=False)
              (bn): BatchNorm2d(192, eps=1e-05, momentum=0.1, affine=True, track_running_stats=True)
            )
          )
        )
      )
      (ffn2): ModuleList(
        (0): Residual(
          (f): FFN(
            (conv1): Conv_BN(
              (conv): Conv2d(192, 384, kernel_size=(1, 1), stride=(1, 1), bias=False)
              (bn): BatchNorm2d(384, eps=1e-05, momentum=0.1, affine=True, track_running_stats=True)
            )
            (act): ReLU()
            (conv2): Conv_BN(
              (conv): Conv2d(384, 192, kernel_size=(1, 1), stride=(1, 1), bias=False)
              (bn): BatchNorm2d(192, eps=1e-05, momentum=0.1, affine=True, track_running_stats=True)
            )
          )
        )
      )
    )
    (evit2_3): EfficientVitBlock(
      (interact1): ModuleList(
        (0): Residual(
          (f): TokenInteractionBlock(
            (dwconv): Conv_BN(
              (conv): Conv2d(192, 192, kernel_size=(3, 3), stride=(1, 1), padding=(1, 1), groups=192, bias=False)
              (bn): BatchNorm2d(192, eps=1e-05, momentum=0.1, affine=True, track_running_stats=True)
            )
          )
        )
      )
      (ffn1): ModuleList(
        (0): Residual(
          (f): FFN(
            (conv1): Conv_BN(
              (conv): Conv2d(192, 384, kernel_size=(1, 1), stride=(1, 1), bias=False)
              (bn): BatchNorm2d(384, eps=1e-05, momentum=0.1, affine=True, track_running_stats=True)
            )
            (act): ReLU()
            (conv2): Conv_BN(
              (conv): Conv2d(384, 192, kernel_size=(1, 1), stride=(1, 1), bias=False)
              (bn): BatchNorm2d(192, eps=1e-05, momentum=0.1, affine=True, track_running_stats=True)
            )
          )
        )
      )
      (att): LocalWindowAttention(
        (attn): CascadedGroupAttention(
          (q): ModuleList(
            (0-3): 4 x Conv_BN(
              (conv): Conv2d(48, 16, kernel_size=(1, 1), stride=(1, 1), bias=False)
              (bn): BatchNorm2d(16, eps=1e-05, momentum=0.1, affine=True, track_running_stats=True)
            )
          )
          (dwconv): ModuleList(
            (0-3): 4 x TokenInteractionBlock(
              (dwconv): Conv_BN(
                (conv): Conv2d(16, 16, kernel_size=(5, 5), stride=(1, 1), padding=(2, 2), groups=16, bias=False)
                (bn): BatchNorm2d(16, eps=1e-05, momentum=0.1, affine=True, track_running_stats=True)
              )
            )
          )
          (k): ModuleList(
            (0-3): 4 x Conv_BN(
              (conv): Conv2d(48, 16, kernel_size=(1, 1), stride=(1, 1), bias=False)
              (bn): BatchNorm2d(16, eps=1e-05, momentum=0.1, affine=True, track_running_stats=True)
            )
          )
          (v): ModuleList(
            (0-3): 4 x Conv_BN(
              (conv): Conv2d(48, 48, kernel_size=(1, 1), stride=(1, 1), bias=False)
              (bn): BatchNorm2d(48, eps=1e-05, momentum=0.1, affine=True, track_running_stats=True)
            )
          )
          (p): Conv_BN(
            (conv): Conv2d(192, 192, kernel_size=(1, 1), stride=(1, 1), bias=False)
            (bn): BatchNorm2d(192, eps=1e-05, momentum=0.1, affine=True, track_running_stats=True)
          )
          (act): ReLU()
        )
      )
      (interact2): ModuleList(
        (0): Residual(
          (f): TokenInteractionBlock(
            (dwconv): Conv_BN(
              (conv): Conv2d(192, 192, kernel_size=(3, 3), stride=(1, 1), padding=(1, 1), groups=192, bias=False)
              (bn): BatchNorm2d(192, eps=1e-05, momentum=0.1, affine=True, track_running_stats=True)
            )
          )
        )
      )
      (ffn2): ModuleList(
        (0): Residual(
          (f): FFN(
            (conv1): Conv_BN(
              (conv): Conv2d(192, 384, kernel_size=(1, 1), stride=(1, 1), bias=False)
              (bn): BatchNorm2d(384, eps=1e-05, momentum=0.1, affine=True, track_running_stats=True)
            )
            (act): ReLU()
            (conv2): Conv_BN(
              (conv): Conv2d(384, 192, kernel_size=(1, 1), stride=(1, 1), bias=False)
              (bn): BatchNorm2d(192, eps=1e-05, momentum=0.1, affine=True, track_running_stats=True)
            )
          )
        )
      )
    )
  )
  (subs1): SubSamplingBlock(
    (interact1): ModuleList(
      (0): Residual(
        (f): TokenInteractionBlock(
          (dwconv): Conv_BN(
            (conv): Conv2d(64, 64, kernel_size=(3, 3), stride=(1, 1), padding=(1, 1), groups=64, bias=False)
            (bn): BatchNorm2d(64, eps=1e-05, momentum=0.1, affine=True, track_running_stats=True)
          )
        )
      )
    )
    (ffn1): ModuleList(
      (0): Residual(
        (f): FFN(
          (conv1): Conv_BN(
            (conv): Conv2d(64, 128, kernel_size=(1, 1), stride=(1, 1), bias=False)
            (bn): BatchNorm2d(128, eps=1e-05, momentum=0.1, affine=True, track_running_stats=True)
          )
          (act): ReLU()
          (conv2): Conv_BN(
            (conv): Conv2d(128, 64, kernel_size=(1, 1), stride=(1, 1), bias=False)
            (bn): BatchNorm2d(64, eps=1e-05, momentum=0.1, affine=True, track_running_stats=True)
          )
        )
      )
    )
    (dwconv): InvertedResidualBlock(
      (conv1): Conv_BN(
        (conv): Conv2d(64, 256, kernel_size=(1, 1), stride=(1, 1), bias=False)
        (bn): BatchNorm2d(256, eps=1e-05, momentum=0.1, affine=True, track_running_stats=True)
      )
      (act1): ReLU()
      (conv2): Conv_BN(
        (conv): Conv2d(256, 256, kernel_size=(3, 3), stride=(2, 2), padding=(1, 1), groups=256, bias=False)
        (bn): BatchNorm2d(256, eps=1e-05, momentum=0.1, affine=True, track_running_stats=True)
      )
      (se): SqueezeExcite(
        (ap): AdaptiveAvgPool2d(output_size=(1, 1))
        (fc1): Conv2d(256, 64, kernel_size=(1, 1), stride=(1, 1))
        (act1): ReLU()
        (fc2): Conv2d(64, 256, kernel_size=(1, 1), stride=(1, 1))
        (act2): Sigmoid()
      )
      (conv3): Conv_BN(
        (conv): Conv2d(256, 128, kernel_size=(1, 1), stride=(1, 1), bias=False)
        (bn): BatchNorm2d(128, eps=1e-05, momentum=0.1, affine=True, track_running_stats=True)
      )
    )
    (interact2): ModuleList(
      (0): Residual(
        (f): TokenInteractionBlock(
          (dwconv): Conv_BN(
            (conv): Conv2d(128, 128, kernel_size=(3, 3), stride=(1, 1), padding=(1, 1), groups=128, bias=False)
            (bn): BatchNorm2d(128, eps=1e-05, momentum=0.1, affine=True, track_running_stats=True)
          )
        )
      )
    )
    (ffn2): ModuleList(
      (0): Residual(
        (f): FFN(
          (conv1): Conv_BN(
            (conv): Conv2d(128, 256, kernel_size=(1, 1), stride=(1, 1), bias=False)
            (bn): BatchNorm2d(256, eps=1e-05, momentum=0.1, affine=True, track_running_stats=True)
          )
          (act): ReLU()
          (conv2): Conv_BN(
            (conv): Conv2d(256, 128, kernel_size=(1, 1), stride=(1, 1), bias=False)
            (bn): BatchNorm2d(128, eps=1e-05, momentum=0.1, affine=True, track_running_stats=True)
          )
        )
      )
    )
  )
  (subs2): SubSamplingBlock(
    (interact1): ModuleList(
      (0): Residual(
        (f): TokenInteractionBlock(
          (dwconv): Conv_BN(
            (conv): Conv2d(128, 128, kernel_size=(3, 3), stride=(1, 1), padding=(1, 1), groups=128, bias=False)
            (bn): BatchNorm2d(128, eps=1e-05, momentum=0.1, affine=True, track_running_stats=True)
          )
        )
      )
    )
    (ffn1): ModuleList(
      (0): Residual(
        (f): FFN(
          (conv1): Conv_BN(
            (conv): Conv2d(128, 256, kernel_size=(1, 1), stride=(1, 1), bias=False)
            (bn): BatchNorm2d(256, eps=1e-05, momentum=0.1, affine=True, track_running_stats=True)
          )
          (act): ReLU()
          (conv2): Conv_BN(
            (conv): Conv2d(256, 128, kernel_size=(1, 1), stride=(1, 1), bias=False)
            (bn): BatchNorm2d(128, eps=1e-05, momentum=0.1, affine=True, track_running_stats=True)
          )
        )
      )
    )
    (dwconv): InvertedResidualBlock(
      (conv1): Conv_BN(
        (conv): Conv2d(128, 512, kernel_size=(1, 1), stride=(1, 1), bias=False)
        (bn): BatchNorm2d(512, eps=1e-05, momentum=0.1, affine=True, track_running_stats=True)
      )
      (act1): ReLU()
      (conv2): Conv_BN(
        (conv): Conv2d(512, 512, kernel_size=(3, 3), stride=(2, 2), padding=(1, 1), groups=512, bias=False)
        (bn): BatchNorm2d(512, eps=1e-05, momentum=0.1, affine=True, track_running_stats=True)
      )
      (se): SqueezeExcite(
        (ap): AdaptiveAvgPool2d(output_size=(1, 1))
        (fc1): Conv2d(512, 128, kernel_size=(1, 1), stride=(1, 1))
        (act1): ReLU()
        (fc2): Conv2d(128, 512, kernel_size=(1, 1), stride=(1, 1))
        (act2): Sigmoid()
      )
      (conv3): Conv_BN(
        (conv): Conv2d(512, 192, kernel_size=(1, 1), stride=(1, 1), bias=False)
        (bn): BatchNorm2d(192, eps=1e-05, momentum=0.1, affine=True, track_running_stats=True)
      )
    )
    (interact2): ModuleList(
      (0): Residual(
        (f): TokenInteractionBlock(
          (dwconv): Conv_BN(
            (conv): Conv2d(192, 192, kernel_size=(3, 3), stride=(1, 1), padding=(1, 1), groups=192, bias=False)
            (bn): BatchNorm2d(192, eps=1e-05, momentum=0.1, affine=True, track_running_stats=True)
          )
        )
      )
    )
    (ffn2): ModuleList(
      (0): Residual(
        (f): FFN(
          (conv1): Conv_BN(
            (conv): Conv2d(192, 384, kernel_size=(1, 1), stride=(1, 1), bias=False)
            (bn): BatchNorm2d(384, eps=1e-05, momentum=0.1, affine=True, track_running_stats=True)
          )
          (act): ReLU()
          (conv2): Conv_BN(
            (conv): Conv2d(384, 192, kernel_size=(1, 1), stride=(1, 1), bias=False)
            (bn): BatchNorm2d(192, eps=1e-05, momentum=0.1, affine=True, track_running_stats=True)
          )
        )
      )
    )
  )
  (output): OutputLayer(
    (pool): AdaptiveAvgPool2d(output_size=(1, 1))
    (fc): BN_Linear(
      (bn): BatchNorm1d(192, eps=1e-05, momentum=0.1, affine=True, track_running_stats=True)
      (linear): Linear(in_features=192, out_features=100, bias=True)
    )
  )
)MyEfficientViT(
  (patch_emb): OverlapPatchEmbedding(
    (proj): Sequential(
      (0): Conv_BN(
        (conv): Conv2d(3, 8, kernel_size=(3, 3), stride=(2, 2), padding=(1, 1), bias=False)
        (bn): BatchNorm2d(8, eps=1e-05, momentum=0.1, affine=True, track_running_stats=True)
      )
      (1): ReLU()
      (2): Conv_BN(
        (conv): Conv2d(8, 16, kernel_size=(3, 3), stride=(2, 2), padding=(1, 1), bias=False)
        (bn): BatchNorm2d(16, eps=1e-05, momentum=0.1, affine=True, track_running_stats=True)
      )
      (3): ReLU()
      (4): Conv_BN(
        (conv): Conv2d(16, 32, kernel_size=(3, 3), stride=(2, 2), padding=(1, 1), bias=False)
        (bn): BatchNorm2d(32, eps=1e-05, momentum=0.1, affine=True, track_running_stats=True)
      )
      (5): ReLU()
      (6): Conv_BN(
        (conv): Conv2d(32, 64, kernel_size=(3, 3), stride=(2, 2), padding=(1, 1), bias=False)
        (bn): BatchNorm2d(64, eps=1e-05, momentum=0.1, affine=True, track_running_stats=True)
      )
      (7): ReLU()
    )
  )
  (evit1): Sequential(
    (evit1_1): EfficientVitBlock(
      (interact1): ModuleList(
        (0): Residual(
          (f): TokenInteractionBlock(
            (dwconv): Conv_BN(
              (conv): Conv2d(64, 64, kernel_size=(3, 3), stride=(1, 1), padding=(1, 1), groups=64, bias=False)
              (bn): BatchNorm2d(64, eps=1e-05, momentum=0.1, affine=True, track_running_stats=True)
            )
          )
        )
      )
      (ffn1): ModuleList(
        (0): Residual(
          (f): FFN(
            (conv1): Conv_BN(
              (conv): Conv2d(64, 128, kernel_size=(1, 1), stride=(1, 1), bias=False)
              (bn): BatchNorm2d(128, eps=1e-05, momentum=0.1, affine=True, track_running_stats=True)
            )
            (act): ReLU()
            (conv2): Conv_BN(
              (conv): Conv2d(128, 64, kernel_size=(1, 1), stride=(1, 1), bias=False)
              (bn): BatchNorm2d(64, eps=1e-05, momentum=0.1, affine=True, track_running_stats=True)
            )
          )
        )
      )
      (att): Residual(
        (f): LocalWindowAttention(
          (attn): CascadedGroupAttention(
            (q): ModuleList(
              (0-3): 4 x Conv_BN(
                (conv): Conv2d(16, 16, kernel_size=(1, 1), stride=(1, 1), bias=False)
                (bn): BatchNorm2d(16, eps=1e-05, momentum=0.1, affine=True, track_running_stats=True)
              )
            )
            (dwconv): ModuleList(
              (0-3): 4 x TokenInteractionBlock(
                (dwconv): Conv_BN(
                  (conv): Conv2d(16, 16, kernel_size=(5, 5), stride=(1, 1), padding=(2, 2), groups=16, bias=False)
                  (bn): BatchNorm2d(16, eps=1e-05, momentum=0.1, affine=True, track_running_stats=True)
                )
              )
            )
            (k): ModuleList(
              (0-3): 4 x Conv_BN(
                (conv): Conv2d(16, 16, kernel_size=(1, 1), stride=(1, 1), bias=False)
                (bn): BatchNorm2d(16, eps=1e-05, momentum=0.1, affine=True, track_running_stats=True)
              )
            )
            (v): ModuleList(
              (0-3): 4 x Conv_BN(
                (conv): Conv2d(16, 16, kernel_size=(1, 1), stride=(1, 1), bias=False)
                (bn): BatchNorm2d(16, eps=1e-05, momentum=0.1, affine=True, track_running_stats=True)
              )
            )
            (p): Conv_BN(
              (conv): Conv2d(64, 64, kernel_size=(1, 1), stride=(1, 1), bias=False)
              (bn): BatchNorm2d(64, eps=1e-05, momentum=0.1, affine=True, track_running_stats=True)
            )
            (act): ReLU()
          )
        )
      )
      (interact2): ModuleList(
        (0): Residual(
          (f): TokenInteractionBlock(
            (dwconv): Conv_BN(
              (conv): Conv2d(64, 64, kernel_size=(3, 3), stride=(1, 1), padding=(1, 1), groups=64, bias=False)
              (bn): BatchNorm2d(64, eps=1e-05, momentum=0.1, affine=True, track_running_stats=True)
            )
          )
        )
      )
      (ffn2): ModuleList(
        (0): Residual(
          (f): FFN(
            (conv1): Conv_BN(
              (conv): Conv2d(64, 128, kernel_size=(1, 1), stride=(1, 1), bias=False)
              (bn): BatchNorm2d(128, eps=1e-05, momentum=0.1, affine=True, track_running_stats=True)
            )
            (act): ReLU()
            (conv2): Conv_BN(
              (conv): Conv2d(128, 64, kernel_size=(1, 1), stride=(1, 1), bias=False)
              (bn): BatchNorm2d(64, eps=1e-05, momentum=0.1, affine=True, track_running_stats=True)
            )
          )
        )
      )
    )
  )
  (evit2): Sequential(
    (evit2_1): EfficientVitBlock(
      (interact1): ModuleList(
        (0): Residual(
          (f): TokenInteractionBlock(
            (dwconv): Conv_BN(
              (conv): Conv2d(128, 128, kernel_size=(3, 3), stride=(1, 1), padding=(1, 1), groups=128, bias=False)
              (bn): BatchNorm2d(128, eps=1e-05, momentum=0.1, affine=True, track_running_stats=True)
            )
          )
        )
      )
      (ffn1): ModuleList(
        (0): Residual(
          (f): FFN(
            (conv1): Conv_BN(
              (conv): Conv2d(128, 256, kernel_size=(1, 1), stride=(1, 1), bias=False)
              (bn): BatchNorm2d(256, eps=1e-05, momentum=0.1, affine=True, track_running_stats=True)
            )
            (act): ReLU()
            (conv2): Conv_BN(
              (conv): Conv2d(256, 128, kernel_size=(1, 1), stride=(1, 1), bias=False)
              (bn): BatchNorm2d(128, eps=1e-05, momentum=0.1, affine=True, track_running_stats=True)
            )
          )
        )
      )
      (att): Residual(
        (f): LocalWindowAttention(
          (attn): CascadedGroupAttention(
            (q): ModuleList(
              (0-3): 4 x Conv_BN(
                (conv): Conv2d(32, 16, kernel_size=(1, 1), stride=(1, 1), bias=False)
                (bn): BatchNorm2d(16, eps=1e-05, momentum=0.1, affine=True, track_running_stats=True)
              )
            )
            (dwconv): ModuleList(
              (0-3): 4 x TokenInteractionBlock(
                (dwconv): Conv_BN(
                  (conv): Conv2d(16, 16, kernel_size=(5, 5), stride=(1, 1), padding=(2, 2), groups=16, bias=False)
                  (bn): BatchNorm2d(16, eps=1e-05, momentum=0.1, affine=True, track_running_stats=True)
                )
              )
            )
            (k): ModuleList(
              (0-3): 4 x Conv_BN(
                (conv): Conv2d(32, 16, kernel_size=(1, 1), stride=(1, 1), bias=False)
                (bn): BatchNorm2d(16, eps=1e-05, momentum=0.1, affine=True, track_running_stats=True)
              )
            )
            (v): ModuleList(
              (0-3): 4 x Conv_BN(
                (conv): Conv2d(32, 32, kernel_size=(1, 1), stride=(1, 1), bias=False)
                (bn): BatchNorm2d(32, eps=1e-05, momentum=0.1, affine=True, track_running_stats=True)
              )
            )
            (p): Conv_BN(
              (conv): Conv2d(128, 128, kernel_size=(1, 1), stride=(1, 1), bias=False)
              (bn): BatchNorm2d(128, eps=1e-05, momentum=0.1, affine=True, track_running_stats=True)
            )
            (act): ReLU()
          )
        )
      )
      (interact2): ModuleList(
        (0): Residual(
          (f): TokenInteractionBlock(
            (dwconv): Conv_BN(
              (conv): Conv2d(128, 128, kernel_size=(3, 3), stride=(1, 1), padding=(1, 1), groups=128, bias=False)
              (bn): BatchNorm2d(128, eps=1e-05, momentum=0.1, affine=True, track_running_stats=True)
            )
          )
        )
      )
      (ffn2): ModuleList(
        (0): Residual(
          (f): FFN(
            (conv1): Conv_BN(
              (conv): Conv2d(128, 256, kernel_size=(1, 1), stride=(1, 1), bias=False)
              (bn): BatchNorm2d(256, eps=1e-05, momentum=0.1, affine=True, track_running_stats=True)
            )
            (act): ReLU()
            (conv2): Conv_BN(
              (conv): Conv2d(256, 128, kernel_size=(1, 1), stride=(1, 1), bias=False)
              (bn): BatchNorm2d(128, eps=1e-05, momentum=0.1, affine=True, track_running_stats=True)
            )
          )
        )
      )
    )
    (evit2_2): EfficientVitBlock(
      (interact1): ModuleList(
        (0): Residual(
          (f): TokenInteractionBlock(
            (dwconv): Conv_BN(
              (conv): Conv2d(128, 128, kernel_size=(3, 3), stride=(1, 1), padding=(1, 1), groups=128, bias=False)
              (bn): BatchNorm2d(128, eps=1e-05, momentum=0.1, affine=True, track_running_stats=True)
            )
          )
        )
      )
      (ffn1): ModuleList(
        (0): Residual(
          (f): FFN(
            (conv1): Conv_BN(
              (conv): Conv2d(128, 256, kernel_size=(1, 1), stride=(1, 1), bias=False)
              (bn): BatchNorm2d(256, eps=1e-05, momentum=0.1, affine=True, track_running_stats=True)
            )
            (act): ReLU()
            (conv2): Conv_BN(
              (conv): Conv2d(256, 128, kernel_size=(1, 1), stride=(1, 1), bias=False)
              (bn): BatchNorm2d(128, eps=1e-05, momentum=0.1, affine=True, track_running_stats=True)
            )
          )
        )
      )
      (att): Residual(
        (f): LocalWindowAttention(
          (attn): CascadedGroupAttention(
            (q): ModuleList(
              (0-3): 4 x Conv_BN(
                (conv): Conv2d(32, 16, kernel_size=(1, 1), stride=(1, 1), bias=False)
                (bn): BatchNorm2d(16, eps=1e-05, momentum=0.1, affine=True, track_running_stats=True)
              )
            )
            (dwconv): ModuleList(
              (0-3): 4 x TokenInteractionBlock(
                (dwconv): Conv_BN(
                  (conv): Conv2d(16, 16, kernel_size=(5, 5), stride=(1, 1), padding=(2, 2), groups=16, bias=False)
                  (bn): BatchNorm2d(16, eps=1e-05, momentum=0.1, affine=True, track_running_stats=True)
                )
              )
            )
            (k): ModuleList(
              (0-3): 4 x Conv_BN(
                (conv): Conv2d(32, 16, kernel_size=(1, 1), stride=(1, 1), bias=False)
                (bn): BatchNorm2d(16, eps=1e-05, momentum=0.1, affine=True, track_running_stats=True)
              )
            )
            (v): ModuleList(
              (0-3): 4 x Conv_BN(
                (conv): Conv2d(32, 32, kernel_size=(1, 1), stride=(1, 1), bias=False)
                (bn): BatchNorm2d(32, eps=1e-05, momentum=0.1, affine=True, track_running_stats=True)
              )
            )
            (p): Conv_BN(
              (conv): Conv2d(128, 128, kernel_size=(1, 1), stride=(1, 1), bias=False)
              (bn): BatchNorm2d(128, eps=1e-05, momentum=0.1, affine=True, track_running_stats=True)
            )
            (act): ReLU()
          )
        )
      )
      (interact2): ModuleList(
        (0): Residual(
          (f): TokenInteractionBlock(
            (dwconv): Conv_BN(
              (conv): Conv2d(128, 128, kernel_size=(3, 3), stride=(1, 1), padding=(1, 1), groups=128, bias=False)
              (bn): BatchNorm2d(128, eps=1e-05, momentum=0.1, affine=True, track_running_stats=True)
            )
          )
        )
      )
      (ffn2): ModuleList(
        (0): Residual(
          (f): FFN(
            (conv1): Conv_BN(
              (conv): Conv2d(128, 256, kernel_size=(1, 1), stride=(1, 1), bias=False)
              (bn): BatchNorm2d(256, eps=1e-05, momentum=0.1, affine=True, track_running_stats=True)
            )
            (act): ReLU()
            (conv2): Conv_BN(
              (conv): Conv2d(256, 128, kernel_size=(1, 1), stride=(1, 1), bias=False)
              (bn): BatchNorm2d(128, eps=1e-05, momentum=0.1, affine=True, track_running_stats=True)
            )
          )
        )
      )
    )
  )
  (evit3): Sequential(
    (evit2_1): EfficientVitBlock(
      (interact1): ModuleList(
        (0): Residual(
          (f): TokenInteractionBlock(
            (dwconv): Conv_BN(
              (conv): Conv2d(192, 192, kernel_size=(3, 3), stride=(1, 1), padding=(1, 1), groups=192, bias=False)
              (bn): BatchNorm2d(192, eps=1e-05, momentum=0.1, affine=True, track_running_stats=True)
            )
          )
        )
      )
      (ffn1): ModuleList(
        (0): Residual(
          (f): FFN(
            (conv1): Conv_BN(
              (conv): Conv2d(192, 384, kernel_size=(1, 1), stride=(1, 1), bias=False)
              (bn): BatchNorm2d(384, eps=1e-05, momentum=0.1, affine=True, track_running_stats=True)
            )
            (act): ReLU()
            (conv2): Conv_BN(
              (conv): Conv2d(384, 192, kernel_size=(1, 1), stride=(1, 1), bias=False)
              (bn): BatchNorm2d(192, eps=1e-05, momentum=0.1, affine=True, track_running_stats=True)
            )
          )
        )
      )
      (att): Residual(
        (f): LocalWindowAttention(
          (attn): CascadedGroupAttention(
            (q): ModuleList(
              (0-3): 4 x Conv_BN(
                (conv): Conv2d(48, 16, kernel_size=(1, 1), stride=(1, 1), bias=False)
                (bn): BatchNorm2d(16, eps=1e-05, momentum=0.1, affine=True, track_running_stats=True)
              )
            )
            (dwconv): ModuleList(
              (0-3): 4 x TokenInteractionBlock(
                (dwconv): Conv_BN(
                  (conv): Conv2d(16, 16, kernel_size=(5, 5), stride=(1, 1), padding=(2, 2), groups=16, bias=False)
                  (bn): BatchNorm2d(16, eps=1e-05, momentum=0.1, affine=True, track_running_stats=True)
                )
              )
            )
            (k): ModuleList(
              (0-3): 4 x Conv_BN(
                (conv): Conv2d(48, 16, kernel_size=(1, 1), stride=(1, 1), bias=False)
                (bn): BatchNorm2d(16, eps=1e-05, momentum=0.1, affine=True, track_running_stats=True)
              )
            )
            (v): ModuleList(
              (0-3): 4 x Conv_BN(
                (conv): Conv2d(48, 48, kernel_size=(1, 1), stride=(1, 1), bias=False)
                (bn): BatchNorm2d(48, eps=1e-05, momentum=0.1, affine=True, track_running_stats=True)
              )
            )
            (p): Conv_BN(
              (conv): Conv2d(192, 192, kernel_size=(1, 1), stride=(1, 1), bias=False)
              (bn): BatchNorm2d(192, eps=1e-05, momentum=0.1, affine=True, track_running_stats=True)
            )
            (act): ReLU()
          )
        )
      )
      (interact2): ModuleList(
        (0): Residual(
          (f): TokenInteractionBlock(
            (dwconv): Conv_BN(
              (conv): Conv2d(192, 192, kernel_size=(3, 3), stride=(1, 1), padding=(1, 1), groups=192, bias=False)
              (bn): BatchNorm2d(192, eps=1e-05, momentum=0.1, affine=True, track_running_stats=True)
            )
          )
        )
      )
      (ffn2): ModuleList(
        (0): Residual(
          (f): FFN(
            (conv1): Conv_BN(
              (conv): Conv2d(192, 384, kernel_size=(1, 1), stride=(1, 1), bias=False)
              (bn): BatchNorm2d(384, eps=1e-05, momentum=0.1, affine=True, track_running_stats=True)
            )
            (act): ReLU()
            (conv2): Conv_BN(
              (conv): Conv2d(384, 192, kernel_size=(1, 1), stride=(1, 1), bias=False)
              (bn): BatchNorm2d(192, eps=1e-05, momentum=0.1, affine=True, track_running_stats=True)
            )
          )
        )
      )
    )
    (evit2_2): EfficientVitBlock(
      (interact1): ModuleList(
        (0): Residual(
          (f): TokenInteractionBlock(
            (dwconv): Conv_BN(
              (conv): Conv2d(192, 192, kernel_size=(3, 3), stride=(1, 1), padding=(1, 1), groups=192, bias=False)
              (bn): BatchNorm2d(192, eps=1e-05, momentum=0.1, affine=True, track_running_stats=True)
            )
          )
        )
      )
      (ffn1): ModuleList(
        (0): Residual(
          (f): FFN(
            (conv1): Conv_BN(
              (conv): Conv2d(192, 384, kernel_size=(1, 1), stride=(1, 1), bias=False)
              (bn): BatchNorm2d(384, eps=1e-05, momentum=0.1, affine=True, track_running_stats=True)
            )
            (act): ReLU()
            (conv2): Conv_BN(
              (conv): Conv2d(384, 192, kernel_size=(1, 1), stride=(1, 1), bias=False)
              (bn): BatchNorm2d(192, eps=1e-05, momentum=0.1, affine=True, track_running_stats=True)
            )
          )
        )
      )
      (att): Residual(
        (f): LocalWindowAttention(
          (attn): CascadedGroupAttention(
            (q): ModuleList(
              (0-3): 4 x Conv_BN(
                (conv): Conv2d(48, 16, kernel_size=(1, 1), stride=(1, 1), bias=False)
                (bn): BatchNorm2d(16, eps=1e-05, momentum=0.1, affine=True, track_running_stats=True)
              )
            )
            (dwconv): ModuleList(
              (0-3): 4 x TokenInteractionBlock(
                (dwconv): Conv_BN(
                  (conv): Conv2d(16, 16, kernel_size=(5, 5), stride=(1, 1), padding=(2, 2), groups=16, bias=False)
                  (bn): BatchNorm2d(16, eps=1e-05, momentum=0.1, affine=True, track_running_stats=True)
                )
              )
            )
            (k): ModuleList(
              (0-3): 4 x Conv_BN(
                (conv): Conv2d(48, 16, kernel_size=(1, 1), stride=(1, 1), bias=False)
                (bn): BatchNorm2d(16, eps=1e-05, momentum=0.1, affine=True, track_running_stats=True)
              )
            )
            (v): ModuleList(
              (0-3): 4 x Conv_BN(
                (conv): Conv2d(48, 48, kernel_size=(1, 1), stride=(1, 1), bias=False)
                (bn): BatchNorm2d(48, eps=1e-05, momentum=0.1, affine=True, track_running_stats=True)
              )
            )
            (p): Conv_BN(
              (conv): Conv2d(192, 192, kernel_size=(1, 1), stride=(1, 1), bias=False)
              (bn): BatchNorm2d(192, eps=1e-05, momentum=0.1, affine=True, track_running_stats=True)
            )
            (act): ReLU()
          )
        )
      )
      (interact2): ModuleList(
        (0): Residual(
          (f): TokenInteractionBlock(
            (dwconv): Conv_BN(
              (conv): Conv2d(192, 192, kernel_size=(3, 3), stride=(1, 1), padding=(1, 1), groups=192, bias=False)
              (bn): BatchNorm2d(192, eps=1e-05, momentum=0.1, affine=True, track_running_stats=True)
            )
          )
        )
      )
      (ffn2): ModuleList(
        (0): Residual(
          (f): FFN(
            (conv1): Conv_BN(
              (conv): Conv2d(192, 384, kernel_size=(1, 1), stride=(1, 1), bias=False)
              (bn): BatchNorm2d(384, eps=1e-05, momentum=0.1, affine=True, track_running_stats=True)
            )
            (act): ReLU()
            (conv2): Conv_BN(
              (conv): Conv2d(384, 192, kernel_size=(1, 1), stride=(1, 1), bias=False)
              (bn): BatchNorm2d(192, eps=1e-05, momentum=0.1, affine=True, track_running_stats=True)
            )
          )
        )
      )
    )
    (evit2_3): EfficientVitBlock(
      (interact1): ModuleList(
        (0): Residual(
          (f): TokenInteractionBlock(
            (dwconv): Conv_BN(
              (conv): Conv2d(192, 192, kernel_size=(3, 3), stride=(1, 1), padding=(1, 1), groups=192, bias=False)
              (bn): BatchNorm2d(192, eps=1e-05, momentum=0.1, affine=True, track_running_stats=True)
            )
          )
        )
      )
      (ffn1): ModuleList(
        (0): Residual(
          (f): FFN(
            (conv1): Conv_BN(
              (conv): Conv2d(192, 384, kernel_size=(1, 1), stride=(1, 1), bias=False)
              (bn): BatchNorm2d(384, eps=1e-05, momentum=0.1, affine=True, track_running_stats=True)
            )
            (act): ReLU()
            (conv2): Conv_BN(
              (conv): Conv2d(384, 192, kernel_size=(1, 1), stride=(1, 1), bias=False)
              (bn): BatchNorm2d(192, eps=1e-05, momentum=0.1, affine=True, track_running_stats=True)
            )
          )
        )
      )
      (att): Residual(
        (f): LocalWindowAttention(
          (attn): CascadedGroupAttention(
            (q): ModuleList(
              (0-3): 4 x Conv_BN(
                (conv): Conv2d(48, 16, kernel_size=(1, 1), stride=(1, 1), bias=False)
                (bn): BatchNorm2d(16, eps=1e-05, momentum=0.1, affine=True, track_running_stats=True)
              )
            )
            (dwconv): ModuleList(
              (0-3): 4 x TokenInteractionBlock(
                (dwconv): Conv_BN(
                  (conv): Conv2d(16, 16, kernel_size=(5, 5), stride=(1, 1), padding=(2, 2), groups=16, bias=False)
                  (bn): BatchNorm2d(16, eps=1e-05, momentum=0.1, affine=True, track_running_stats=True)
                )
              )
            )
            (k): ModuleList(
              (0-3): 4 x Conv_BN(
                (conv): Conv2d(48, 16, kernel_size=(1, 1), stride=(1, 1), bias=False)
                (bn): BatchNorm2d(16, eps=1e-05, momentum=0.1, affine=True, track_running_stats=True)
              )
            )
            (v): ModuleList(
              (0-3): 4 x Conv_BN(
                (conv): Conv2d(48, 48, kernel_size=(1, 1), stride=(1, 1), bias=False)
                (bn): BatchNorm2d(48, eps=1e-05, momentum=0.1, affine=True, track_running_stats=True)
              )
            )
            (p): Conv_BN(
              (conv): Conv2d(192, 192, kernel_size=(1, 1), stride=(1, 1), bias=False)
              (bn): BatchNorm2d(192, eps=1e-05, momentum=0.1, affine=True, track_running_stats=True)
            )
            (act): ReLU()
          )
        )
      )
      (interact2): ModuleList(
        (0): Residual(
          (f): TokenInteractionBlock(
            (dwconv): Conv_BN(
              (conv): Conv2d(192, 192, kernel_size=(3, 3), stride=(1, 1), padding=(1, 1), groups=192, bias=False)
              (bn): BatchNorm2d(192, eps=1e-05, momentum=0.1, affine=True, track_running_stats=True)
            )
          )
        )
      )
      (ffn2): ModuleList(
        (0): Residual(
          (f): FFN(
            (conv1): Conv_BN(
              (conv): Conv2d(192, 384, kernel_size=(1, 1), stride=(1, 1), bias=False)
              (bn): BatchNorm2d(384, eps=1e-05, momentum=0.1, affine=True, track_running_stats=True)
            )
            (act): ReLU()
            (conv2): Conv_BN(
              (conv): Conv2d(384, 192, kernel_size=(1, 1), stride=(1, 1), bias=False)
              (bn): BatchNorm2d(192, eps=1e-05, momentum=0.1, affine=True, track_running_stats=True)
            )
          )
        )
      )
    )
  )
  (subs1): SubSamplingBlock(
    (interact1): ModuleList(
      (0): Residual(
        (f): TokenInteractionBlock(
          (dwconv): Conv_BN(
            (conv): Conv2d(64, 64, kernel_size=(3, 3), stride=(1, 1), padding=(1, 1), groups=64, bias=False)
            (bn): BatchNorm2d(64, eps=1e-05, momentum=0.1, affine=True, track_running_stats=True)
          )
        )
      )
    )
    (ffn1): ModuleList(
      (0): Residual(
        (f): FFN(
          (conv1): Conv_BN(
            (conv): Conv2d(64, 128, kernel_size=(1, 1), stride=(1, 1), bias=False)
            (bn): BatchNorm2d(128, eps=1e-05, momentum=0.1, affine=True, track_running_stats=True)
          )
          (act): ReLU()
          (conv2): Conv_BN(
            (conv): Conv2d(128, 64, kernel_size=(1, 1), stride=(1, 1), bias=False)
            (bn): BatchNorm2d(64, eps=1e-05, momentum=0.1, affine=True, track_running_stats=True)
          )
        )
      )
    )
    (dwconv): InvertedResidualBlock(
      (conv1): Conv_BN(
        (conv): Conv2d(64, 256, kernel_size=(1, 1), stride=(1, 1), bias=False)
        (bn): BatchNorm2d(256, eps=1e-05, momentum=0.1, affine=True, track_running_stats=True)
      )
      (act1): ReLU()
      (conv2): Conv_BN(
        (conv): Conv2d(256, 256, kernel_size=(3, 3), stride=(2, 2), padding=(1, 1), groups=256, bias=False)
        (bn): BatchNorm2d(256, eps=1e-05, momentum=0.1, affine=True, track_running_stats=True)
      )
      (se): SqueezeExcite(
        (ap): AdaptiveAvgPool2d(output_size=(1, 1))
        (fc1): Conv2d(256, 64, kernel_size=(1, 1), stride=(1, 1))
        (act1): ReLU()
        (fc2): Conv2d(64, 256, kernel_size=(1, 1), stride=(1, 1))
        (act2): Sigmoid()
      )
      (conv3): Conv_BN(
        (conv): Conv2d(256, 128, kernel_size=(1, 1), stride=(1, 1), bias=False)
        (bn): BatchNorm2d(128, eps=1e-05, momentum=0.1, affine=True, track_running_stats=True)
      )
    )
    (interact2): ModuleList(
      (0): Residual(
        (f): TokenInteractionBlock(
          (dwconv): Conv_BN(
            (conv): Conv2d(128, 128, kernel_size=(3, 3), stride=(1, 1), padding=(1, 1), groups=128, bias=False)
            (bn): BatchNorm2d(128, eps=1e-05, momentum=0.1, affine=True, track_running_stats=True)
          )
        )
      )
    )
    (ffn2): ModuleList(
      (0): Residual(
        (f): FFN(
          (conv1): Conv_BN(
            (conv): Conv2d(128, 256, kernel_size=(1, 1), stride=(1, 1), bias=False)
            (bn): BatchNorm2d(256, eps=1e-05, momentum=0.1, affine=True, track_running_stats=True)
          )
          (act): ReLU()
          (conv2): Conv_BN(
            (conv): Conv2d(256, 128, kernel_size=(1, 1), stride=(1, 1), bias=False)
            (bn): BatchNorm2d(128, eps=1e-05, momentum=0.1, affine=True, track_running_stats=True)
          )
        )
      )
    )
  )
  (subs2): SubSamplingBlock(
    (interact1): ModuleList(
      (0): Residual(
        (f): TokenInteractionBlock(
          (dwconv): Conv_BN(
            (conv): Conv2d(128, 128, kernel_size=(3, 3), stride=(1, 1), padding=(1, 1), groups=128, bias=False)
            (bn): BatchNorm2d(128, eps=1e-05, momentum=0.1, affine=True, track_running_stats=True)
          )
        )
      )
    )
    (ffn1): ModuleList(
      (0): Residual(
        (f): FFN(
          (conv1): Conv_BN(
            (conv): Conv2d(128, 256, kernel_size=(1, 1), stride=(1, 1), bias=False)
            (bn): BatchNorm2d(256, eps=1e-05, momentum=0.1, affine=True, track_running_stats=True)
          )
          (act): ReLU()
          (conv2): Conv_BN(
            (conv): Conv2d(256, 128, kernel_size=(1, 1), stride=(1, 1), bias=False)
            (bn): BatchNorm2d(128, eps=1e-05, momentum=0.1, affine=True, track_running_stats=True)
          )
        )
      )
    )
    (dwconv): InvertedResidualBlock(
      (conv1): Conv_BN(
        (conv): Conv2d(128, 512, kernel_size=(1, 1), stride=(1, 1), bias=False)
        (bn): BatchNorm2d(512, eps=1e-05, momentum=0.1, affine=True, track_running_stats=True)
      )
      (act1): ReLU()
      (conv2): Conv_BN(
        (conv): Conv2d(512, 512, kernel_size=(3, 3), stride=(2, 2), padding=(1, 1), groups=512, bias=False)
        (bn): BatchNorm2d(512, eps=1e-05, momentum=0.1, affine=True, track_running_stats=True)
      )
      (se): SqueezeExcite(
        (ap): AdaptiveAvgPool2d(output_size=(1, 1))
        (fc1): Conv2d(512, 128, kernel_size=(1, 1), stride=(1, 1))
        (act1): ReLU()
        (fc2): Conv2d(128, 512, kernel_size=(1, 1), stride=(1, 1))
        (act2): Sigmoid()
      )
      (conv3): Conv_BN(
        (conv): Conv2d(512, 192, kernel_size=(1, 1), stride=(1, 1), bias=False)
        (bn): BatchNorm2d(192, eps=1e-05, momentum=0.1, affine=True, track_running_stats=True)
      )
    )
    (interact2): ModuleList(
      (0): Residual(
        (f): TokenInteractionBlock(
          (dwconv): Conv_BN(
            (conv): Conv2d(192, 192, kernel_size=(3, 3), stride=(1, 1), padding=(1, 1), groups=192, bias=False)
            (bn): BatchNorm2d(192, eps=1e-05, momentum=0.1, affine=True, track_running_stats=True)
          )
        )
      )
    )
    (ffn2): ModuleList(
      (0): Residual(
        (f): FFN(
          (conv1): Conv_BN(
            (conv): Conv2d(192, 384, kernel_size=(1, 1), stride=(1, 1), bias=False)
            (bn): BatchNorm2d(384, eps=1e-05, momentum=0.1, affine=True, track_running_stats=True)
          )
          (act): ReLU()
          (conv2): Conv_BN(
            (conv): Conv2d(384, 192, kernel_size=(1, 1), stride=(1, 1), bias=False)
            (bn): BatchNorm2d(192, eps=1e-05, momentum=0.1, affine=True, track_running_stats=True)
          )
        )
      )
    )
  )
  (output): OutputLayer(
    (pool): AdaptiveAvgPool2d(output_size=(1, 1))
    (fc): BN_Linear(
      (bn): BatchNorm1d(192, eps=1e-05, momentum=0.1, affine=True, track_running_stats=True)
      (linear): Linear(in_features=192, out_features=100, bias=True)
    )
  )
)